teams/psjw2/ddpg_agent_training/trained_models/model.pt (torch, 632687 bytes, 8 tensors)

fc1.weight f4 [256, 98]
-0.03895413 0.039322697 0.010910688 -0.08075363 -0.03353803 0.019660452 -0.07103507 0.02027248
-0.04636815 0.002044931 0.033794183 -0.07401728 0.09513523 -0.07562086 0.031575907 -0.077312335
0.048094448 0.043480136 0.060502272 0.018557914 -0.108151615 -0.022331577 0.0715778 0.0032602395
0.020699246 0.073464245 0.043226782 0.08061338 0.07816711 0.013895489 -0.105748296 -0.022694375
-0.015040159 0.009243516 0.087826416 -0.049286094 0.05114455 0.014716676 0.049299784 -0.08007935
0.032454114 0.023660345 0.083434686 0.025643839 -0.069082476 -0.06603953 -0.0015625935 -0.048336387
0.040268425 -0.079299934 0.075663604 0.04274323 -0.03430937 -0.0020405236 -0.00799752 0.06462813
-0.059142035 0.04797631 -0.02720665 0.007945981 -0.04326939 -0.11607526 0.013060276 -0.102162525
-0.020397054 -0.00043402848 -0.08280041 -0.07242832 -0.010662169 -0.060662415 -0.12351757 -0.06473154
0.042224564 0.0026289811 0.011268355 0.023473175 -0.07000479 -0.0056615444 0.012046584 0.016576527
0.043034673 -0.003248 -0.015635071 0.06393039 -0.0810693 -0.019662255 -0.035146225 0.08382879
0.014580061 0.07998524 0.053724166 0.045284156 -0.07221357 0.075461306 -0.030393627 0.06462227
-0.012355197 -0.06279638 0.0973212 -0.028702142 -0.06971988 0.07642403 -0.0033979479 0.082590446
-0.028813215 0.06851715 -0.0046184245 0.09077785 -0.06566433 -0.025616828 -0.08405745 -0.057921316
-0.02260096 -0.053172328 -0.06853289 -0.027368456 0.03402802 -0.062824324 0.026688423 -0.028863573
-0.017649809 0.052993223 0.07811827 0.092727795 0.006934915 -0.08674483 0.0721924 0.020685673
-0.019708494 0.022455474 -0.016904553 0.10775656 -0.046505872 -0.022698816 -0.040439688 0.020030523
0.06736793 -0.097545825 -0.002322129 0.0494109 -0.03687434 0.05094909 0.051334392 -0.051133156
-0.06723934 -0.111855544 -0.05408899 0.08890772 0.08555566 0.06832063 -0.006360723 0.036656942
-0.1097573 0.02288668 -0.056707107 0.009655311 -0.048206124 0.0650058 0.05275414 0.10397098
-0.11154145 -0.016863896 -0.119879656 -0.07997445 -0.06390249 0.073174424 -0.020040788 0.027627138
-0.08382824 0.021097125 -0.03158139 0.023166478 -0.0025888083 0.06438339 -0.07429986 0.002396673
0.048491057 0.035872538 0.08001096 0.020287259 0.054331783 -0.08712429 0.033318207 -0.023965098
0.123354815 0.032783225 0.0858136 0.06902598 0.056686755 -0.09393158 0.0041884976 -0.038535465
-0.050335936 -0.05532996 0.016582059 -0.05764091 -0.06306923 -0.078454435 -0.061092272 0.059863247
-0.088185616 -0.060175527 -0.043075312 -0.049964227 -0.103484794 0.057302788 0.061249312 0.02234483
-0.108232096 0.00023342809 -0.0025295531 0.04301864 -0.059536777 -0.08875116 0.050189387 0.044896368
0.08251884 -0.08241488 0.086719796 -0.05578617 0.064268276 0.021758262 -0.106140934 0.017202461
0.008099532 0.015334216 -0.042717516 -0.049038116 0.06510919 0.03671185 0.08934578 -0.021657186
-0.010803974 -0.0044919443 -0.07958922 0.07822933 0.06311273 0.07320691 -0.07729763 0.05532159
-0.07799262 -0.010977909 0.0529474 0.04421194 0.068388075 0.06510356 0.104914 -0.10597558
-0.0110639185 -0.09971795 0.06536491 0.031430576 -0.08606993 0.029600978 0.08446243 0.045813575
00000000: 5e8e 1fbd d610 213d bec2 323c 2962 a5bd
00000010: 2c5f 09bd f50e a13c d67a 91bd 7912 a63c
00000020: 87ec 3dbd 4004 063b c56b 0a3d 5f96 97bd
00000030: 42d6 c23d 1cdf 9abd bd55 013d ee55 9ebd
00000040: affe 443d 3a18 323d 3bd1 773d c406 983c
00000050: 987e ddbd b6f0 b6bc 6297 923d bea9 553b
00000060: 7791 a93c 6c74 963d 910e 313d a118 a53d
00000070: 1416 a03d e8a9 633c 9092 d8bd 8ee9 b9bc
00000080: 006b 76bc 1e72 173c 56de b33d 37e0 49bd
00000090: f37c 513d 371e 713c 92ee 493d a400 a4bd
000000a0: 9bee 043d 57d3 c13c cedf aa3d 0713 d23c
000000b0: 1d7b 8dbd bc3f 87bd f0cf ccba 60fc 45bd
000000c0: 81f0 243d 0168 a2bd 85f5 9a3d 8613 2f3d
000000d0: fb87 0cbd 4eba 05bb 0808 03bc c15b 843d
000000e0: eb3e 72bd cf82 443d 7be0 debc dc2f 023c
000000f0: 3e3b 31bd deb8 edbd c5fa 553c 963a d1bd
00000100: b917 a7bc 518e e3b9 4393 a9bd 4d55 94bd
00000110: 61b0 2ebc 2779 78bd c8f6 fcbd f891 84bd
00000120: aaf3 2c3d fc4a 2c3b e89e 383c d14a c03c
00000130: ac5e 8fbd 7a84 b9bb 095f 453c 7fcb 873c
00000140: 2045 303d 66dc 54bb 1f15 80bc f0ed 823d
00000150: a907 a6bd bd12 a1bc 7df5 0fbd 6eae ab3d
00000160: 35e1 6e3c 4dcf a33d df0d 5c3d e17b 393d
00000170: b5e4 93bd 758b 9a3d 0efc f8bc ae58 843d
00000180: 746d 4abc 639b 80bd 5650 c73d c120 ebbc
00000190: 4cc9 8ebd 3484 9c3d 1bb0 5ebb 2e25 a93d
000001a0: b109 ecbc b852 8c3d 2756 97bb bde9 b93d
000001b0: 057b 86bd 62da d1bc 5026 acbd e73e 6dbd
000001c0: a625 b9bc 3acb 59bd f95a 8cbd d033 e0bc
000001d0: f760 0b3d 0aaa 80bd aea1 da3c 4d73 ecbc
000001e0: 5596 90bc 6c0f 593d 79fc 9f3d 12e8 bd3d
000001f0: 493e e33b 46a7 b1bd 9cd9 933d 0075 a93c
00000200: b573 a1bc 8bf4 b73c 6b7b 8abc 79af dc3d
00000210: f17c 3ebd def2 b9bc 16a4 25bd 0d17 a43c
00000220: 33f8 893d 1bc6 c7bd dc2e 18bb 1563 4a3d
00000230: 8c09 17bd feaf 503d 0344 523d 0071 51bd
00000240: c7b4 89bd 8514 e5bd 6b8c 5dbd 4015 b63d
00000250: ce37 af3d b0eb 8b3d 9d6d d0bb 9725 163d
00000260: 6fc8 e0bd d97c bb3c b645 68bd 4f31 1e3c
00000270: c973 45bd c321 853d ba14 583d bdee d43d
00000280: d86f e4bd 2726 8abc 7783 f5bd a5c9 a3bd
00000290: 4fdf 82bd 79dc 953d 942c a4bc 4f52 e23c
000002a0: 24ae abbd e1d3 ac3c 7d5b 01bd a0c7 bd3c
000002b0: ffa8 29bb 70db 833d 862a 98bd 8011 1d3b
000002c0: 8f9e 463d 15ef 123d c9dc a33d 7731 a63c
000002d0: 018b 5e3d 386e b2bd ac78 083d 7452 c4bc
000002e0: 73a1 fc3d b447 063d 0abf af3d 7e5d 8d3d
000002f0: 5f30 683d 335f c0bd aa3f 893b 5dd7 1dbd
00000300: 0e2d 4ebd aba1 62bd 19d7 873c e018 6cbd
00000310: 712a 81bd b8ac a0bd e43b 7abd 2a33 753d
00000320: a99a b4bd 9d7a 76bd bd6f 30bd 4aa7 4cbd
00000330: d6ef d3bd 54b6 6a3d 8fe0 7a3d 810c b73c
00000340: caa8 ddbd 60c4 7439 dcc6 25bb 5034 303d
00000350: d6dc 73bd 2bc3 b5bd 6393 4d3d 41e5 373d
00000360: a3ff a83d 22c9 a8bd 269a b13d 0a80 64bd
00000370: 169f 833d 623e b23c 6b60 d9bd 2dec 8c3c
00000380: e6b3 043c 5d3c 7b3c 90f8 2ebd 31dc 48bd
00000390: f857 853d 2a5f 163d ecfa b63d 696a b1bc
000003a0: 2703 31bc 2931 93bb acff a2bd b336 a03d
000003b0: 3f41 813d 81ed 953d 384e 9ebd e498 623d
000003c0: 98ba 9fbd b0dc 33bc 5fdf 583d 9417 353d
000003d0: 0c0f 8c3d 0455 853d 27dd d63d ba09 d9bd
000003e0: 7045 35bc ed38 ccbd 0ade 853d 59bd 003d
000003f0: 6e45 b0bd c07d f23c a3fa ac3d 04a7 3b3d

fc1.bias f4 [256]
0.10510448 0.031705447 -0.07990674 0.07282279 0.027475197 0.017656669 -0.02229032 0.021000972
0.100628346 0.08772815 -0.0022628326 -0.012155255 -0.032961644 0.100126065 0.028676191 0.047624562
0.03498921 0.08293451 0.078689076 -0.063826725 -0.0012854221 0.012995777 -0.026551597 -0.0073031657
-0.09773648 -0.066529386 0.003990272 0.01462139 0.09582227 0.07450526 -0.006151362 0.105469316
0.0071500707 0.030585984 0.09325832 -0.099584386 0.0006205347 -0.0046773385 0.058871172 -0.08617359
0.005745807 0.019067947 -0.036749765 -0.06356624 -0.085738756 0.036358714 -0.01631124 0.076480135
0.030126642 0.103865035 0.059484664 0.08014364 0.07242236 0.00857147 -0.039308436 -0.08662027
0.06010139 0.0451806 0.009336199 0.052308958 -0.032439876 -0.011623807 0.029162304 0.05194748
-0.046550278 0.09688142 -0.08670093 -0.068127565 -0.08479205 0.021096008 0.08295381 0.056728847
0.11221165 0.008837217 0.10884515 0.08703015 0.026456453 -0.084819585 0.09276901 0.002511449
0.09813551 0.055532962 -0.026800832 0.053126425 -0.037481796 0.018979823 -0.026331613 -0.024208032
0.017316228 -0.0012140351 0.08473564 0.007910786 -0.025856972 -0.017041115 -0.07578823 -0.067811996
0.07211227 0.010074421 -0.060220428 0.028725369 0.07514811 -0.050306037 -0.052549344 -0.042773794
0.008568086 0.103631966 0.03198671 -0.07577199 0.07478046 0.04644308 0.076125704 0.03609686
0.029834278 -0.06008407 0.024714338 -0.03535334 -0.03163313 0.05820283 0.04981228 0.06906367
0.09668441 -0.08015207 0.09536568 -0.10379692 0.0055339243 -0.09405357 -0.0074290885 0.11527112
-0.035535194 0.09111657 -0.06171099 0.032487802 0.08689933 0.011506655 -0.0654067 0.031193778
0.004592087 -0.063915975 -0.004098063 -0.05894186 -0.11571912 0.06083266 -0.00075296394 0.035326768
-0.023228286 -0.02627991 0.04273899 0.09561689 0.061154824 -0.046085205 0.057934944 0.005266728
0.077918716 -0.049346168 0.06179859 -0.08394188 -0.06763144 -0.005232792 -0.022155061 -0.046116732
0.09397792 -0.060688805 -0.044377074 0.06344142 0.058050808 0.10640522 0.024298076 0.050100487
-0.028033638 -0.018633937 0.042444725 0.1039642 0.09056497 -0.07691399 -0.072707795 -0.043647457
0.06210636 0.063338034 0.031673122 0.10526008 0.016251672 0.032708794 0.09478824 -0.024783187
-0.015554526 -0.06974336 -0.033937644 0.1053423 0.08260278 -0.009024587 0.04784068 0.03613184
0.07705845 -0.007999148 0.05987991 0.073783055 0.102692254 0.09054829 0.030842798 -0.052786313
-0.0043597505 0.10249621 -0.061771553 0.07018263 0.07482751 -0.10161397 -0.021794207 -0.062025398
0.072166055 -0.0368118 -0.02589049 -0.050957263 0.07848557 0.020238558 -0.08394444 0.08861946
0.11600215 0.02730552 -0.026694449 0.07619358 0.001148581 -0.07858935 -0.07536974 0.024837159
0.05194311 -0.016364109 0.05419715 0.115139954 0.015272263 0.045088865 0.08732997 -0.0646856
-0.07825756 0.07246792 0.066074885 -0.015845379 -0.08195392 -0.060925055 0.022930302 0.027487822
0.033728916 -0.046853594 0.04916135 0.04079224 -0.06219904 0.10997683 0.10007069 -0.053590402
-0.022142582 -0.0672425 -0.06430616 0.04106907 0.038911276 0.04982358 -0.066710524 -0.021578152
00000000: 0541 d73d 92dd 013d 25a6 a3bd 1d24 953d
00000010: aa13 e13c b8a4 903c 309a b6bc 3b0a ac3c
00000020: 3c16 ce3d d1aa b33d 084c 14bb d626 47bc
00000030: ca02 07bd e50e cd3d 55ea ea3c f911 433d
00000040: d950 0f3d 92d9 a93d bd27 a13d 96b7 82bd
00000050: 9c7b a8ba 3dec 543c bc82 d9bc 654f efbb
00000060: 102a c8bd 8f40 88bd d4c0 823b 8e8e 6f3c
00000070: 773e c43d 3796 983d 5d91 c9bb 4c00 d83d
00000080: 244b ea3b 758f fa3c 38fe be3d e6f2 cbbd
00000090: 61ab 223a 5c44 99bb e622 713d c77b b0bd
000000a0: 5347 bc3b 6234 9c3c ec86 16bd 042f 82bd
000000b0: cd97 afbd e0ec 143d 269f 85bc 9ea1 9c3d
000000c0: 26cc f63c 31b7 d43d 31a6 733d 5922 a43d
000000d0: 2d52 943d 5a6f 0c3c e201 21bd f865 b1bd
000000e0: e02c 763d 4b0f 393d dbf6 183c eb41 563d
000000f0: addf 04bd c871 3ebc c9e5 ee3c e1c6 543d
00000100: 81ab 3ebd c469 c63d 4290 b1bd 7786 8bbd
00000110: 74a7 adbd 89d1 ac3c b0e3 a93d 825c 683d
00000120: 39cf e53d fac9 103c 35ea de3d dd3c b23d
00000130: 34bb d83c e4b5 adbd aefd bd3d 1f97 243b
00000140: 45fb c83d 8876 633d 6b8d dbbc 189b 593d
00000150: 8386 19bd 937b 9b3c 65b5 d7bc ec4f c6bc
00000160: c3da 8d3c 4220 9fba e189 ad3d 3e9c 013c
00000170: 00d2 d3bc cf99 8bbc dc36 9bbd 04e1 8abd
00000180: 99af 933d 2f0f 253c b2a9 76bd 7751 eb3c
00000190: 41e7 993d b40d 4ebd fb3d 57bd 9333 2fbd
000001a0: 2861 0c3c ff3c d43d 7f04 033d 582e 9bbd
000001b0: 7f26 993d 193b 3e3d cbe7 9b3d 4dda 133d
000001c0: 0467 f43c b71a 76bd b975 ca3c aace 10bd
000001d0: be91 01bd 1766 6e3d f607 4c3d 4171 8d3d
000001e0: 7a02 c63d c526 a4bd 154f c33d 7b93 d4bd
000001f0: ec55 b53b 289f c0bd b66f f3bb 4413 ec3d
00000200: 5a8d 11bd 539b ba3d aac4 7cbd ee11 053d
00000210: 47f8 b13d 6986 3c3c f3f3 85bd 188a ff3c
00000220: 3879 963b 61e6 82bd 0b49 86bb 056d 71bd
00000230: 25fe ecbd ab2b 793d 8e62 45ba cdb2 103d
00000240: 3f49 bebc f748 d7bc 140f 2f3d cad2 c33d
00000250: 7b7d 7a3d d7c3 3cbd 314d 6d3d 8494 ac3b
00000260: d993 9f3d 351f 4abd 8520 7d3d b8e9 abbd
00000270: 5a82 8abd d777 abbb 887e b5bc e6e4 3cbd
00000280: 7f77 c03d d394 78bd bcc4 35bd 93ed 813d
00000290: afc6 6d3d fbea d93d c20c c73c 2b36 4d3d
000002a0: cda6 e5bc 33a6 98bc 85da 2d3d 2feb d43d
000002b0: 217a b93d 1585 9dbd d3e7 94bd adc7 32bd
000002c0: 3d63 7e3d 5fb7 813d adbb 013d 9992 d73d
000002d0: 3a22 853c a8f9 053d 5620 c23d 1c06 cbbc
000002e0: 69d8 7ebc 9bd5 8ebd 3302 0bbd b4bd d73d
000002f0: a52b a93d dddb 13bc 97f4 433d fbfe 133d
00000300: d2d0 9d3d dc0e 03bc a344 753d 921b 973d
00000310: 5150 d23d 6271 b93d 09aa fc3c 7636 58bd
00000320: 3ddc 8ebb 88e9 d13d 2b04 7dbd e9bb 8f3d
00000330: 2a3f 993d fc1a d0bd c489 b2bc 580e 7ebd
00000340: cccb 933d f8c7 16bd 4b18 d4bc 90b8 50bd
00000350: 0bbd a03d 55cb a53c 10eb abbd 1f7e b53d
00000360: 8992 ed3d d3af df3c 51ae dabc 610b 9c3d
00000370: fc8b 963a 74f3 a0bd 735b 9abd 4c77 cb3c
00000380: 4cc2 543d 060e 86bc d5fd 5d3d 7fce eb3d
00000390: 8438 7a3c 1aaf 383d 0eda b23d e279 84bd
000003a0: 8045 a0bd 106a 943d 4552 873d 2bce 81bc
000003b0: 75d7 a7bd 8d8c 79bd 54d8 bb3c 242e e13c
000003c0: 5527 0a3d 8ee9 3fbd 695d 493d c415 273d
000003d0: 6cc4 7ebd 883b e13d ddf1 cc3d 9c81 5bbd
000003e0: 5c64 b5bc 70b6 89bd f3b2 83bd 0b38 283d
000003f0: 6e61 1f3d cf13 4c3d 879f 88bd aac4 b0bc

fc2.weight f4 [256, 256]
-0.026935069 0.025193172 -0.047544196 -0.011940583 0.028051991 0.0046081073 0.04792705 -0.02322932
0.013303427 0.033874754 -0.004732109 0.071971275 -0.013687435 0.06594267 0.065147676 0.039422676
0.07328712 -0.012884447 0.00592058 0.033785425 0.01279825 -0.043701388 0.07538922 0.06760557
0.017538326 0.07278646 0.06853524 -0.011550523 0.021509053 -0.02176846 -0.016829798 0.029233292
0.019629838 0.02804528 0.009205145 -0.011254297 0.04335663 0.019391522 0.057599466 -0.0074173408
0.022539007 0.07042415 0.024816217 -0.024352925 -0.029260786 -0.035531767 0.023688542 0.058552664
0.0021177437 0.0717969 -0.01323918 0.013462847 0.08178867 -0.015309338 0.05655281 0.035033453
-0.0031892378 0.023961227 0.047837898 0.07722286 0.045679633 -0.0363978 0.010454478 0.07007514
0.0103896065 -0.03176686 0.025967794 0.06787345 -0.01818773 -0.03150013 -0.005694127 0.048488233
-0.0005496661 0.04771335 0.040721618 0.027739538 0.019040713 -0.028659247 0.08628944 0.031401873
0.055881966 -0.018963605 0.05900595 0.07050092 0.0656004 0.042221736 0.040616583 0.05192094
0.035065398 0.05444139 -0.02577159 -0.03465084 -0.02610494 -0.0043220697 0.027875012 0.004340937
-0.036613893 -0.017447596 0.059404884 0.02233349 0.002380433 0.02073785 0.0063593034 0.027583335
-0.0079199895 0.063034475 0.022473557 -0.015118569 -0.03499859 0.07245865 0.06022498 0.041378707
0.03964561 0.07589882 0.015487629 0.04823086 0.00790136 0.04850501 0.04725928 0.07804892
-0.03073365 -0.046359833 -0.026098406 -0.035487942 -0.029198552 0.019294132 -0.007929043 -0.017862495
-0.040586933 0.0118563 -0.03078934 0.04852323 0.029951626 0.072326265 -0.018372998 0.059975367
0.027065482 0.0190842 0.024890097 -0.013555128 0.08153194 0.030294035 0.003924836 0.04795456
0.07402615 0.046884798 0.050010826 -0.03105013 0.0027399252 -0.042767044 0.04314564 0.0033278537
-0.011401881 0.065271005 0.074768856 0.08692103 0.024412977 0.054364182 -0.023115575 -0.032635134
0.040518876 0.05003705 -0.042404935 -0.015228174 0.068192564 0.022492073 0.028043866 0.045412194
0.03917722 -0.039654527 -0.035531837 -0.022937449 0.06745842 -0.026205212 0.032228727 0.07985492
0.031510174 0.014986528 -0.041053124 0.0009797047 0.034372635 0.009294145 0.034294095 0.014539092
0.0043855016 0.043013766 -0.007287069 -0.010456724 0.04530613 -0.018953765 -0.031198507 0.013043465
0.074822396 0.03850736 0.0025095881 0.0378127 0.054632764 0.037306014 0.03825088 -0.031027084
-0.023171967 0.06296578 -0.011973844 -0.005456048 0.065607965 -0.0040964475 0.02940457 0.030176057
0.04185535 0.064435266 0.06557529 0.003902612 0.06382401 0.035563678 0.059619952 0.026647985
0.057537027 -0.010299575 -0.03739668 0.07392668 0.0012160931 0.005305054 0.008463654 0.0061351857
0.029197535 -0.0022190164 0.013436798 0.05055676 0.072723344 -0.008035778 0.049711525 0.009700308
-0.030710815 -0.02245505 0.0548603 0.052128296 0.007939411 0.005355743 0.006164305 0.06358657
0.06212621 -0.041135307 -0.005117501 -0.0036207135 0.02983011 0.021852445 -0.028548948 -0.0008629677
0.010942599 0.021829356 0.013828932 -0.012320524 0.04507993 -0.0004856598 0.04915829 0.0064835777
00000000: efa6 dcbc e961 ce3c b4bd 42bd 6fa2 43bc
00000010: 4acd e53c 9bff 963b 284f 443d 6a4b bebc
00000020: 9ef6 593c 41c0 0a3d cf0f 9bbb ad65 933d
00000030: 4341 60bc f30c 873d 256c 853d ac79 213d
00000040: 8f17 963d 4a19 53bc 6d01 c23b 9662 0a3d
00000050: c0af 513c 3a00 33bd aa65 9a3d ca74 8a3d
00000060: 89ac 8f3c 1111 953d 345c 8c3d 683e 3dbc
00000070: c133 b03c c553 b2bc a5de 89bc a87a ef3c
00000080: c1ce a03c 37bf e53c 2dd1 163c f163 38bc
00000090: b996 313d f8da 9e3c 6bed 6b3d 2a0d f3bb
000000a0: b9a3 b83c 893a 903d 614b cb3c c97f c7bc
000000b0: 51b4 efbc c289 11bd 790e c23c ebd4 6f3d
000000c0: d8c9 0a3b 410a 933d 25e9 58bc 4693 5c3c
000000d0: d180 a73d 05d4 7abc eba3 673d 3d7f 0f3d
000000e0: 8802 51bb 564a c43c acf1 433d 0527 9e3d
000000f0: 911a 3b3d dc15 15bd 4249 2b3c 8e83 8f3d
00000100: 2b39 2a3c f81d 02bd 69ba d43c 3c01 8b3d
00000110: 6ffe 94bc 4806 01bd cd95 babb 999b 463d
00000120: 7817 10ba 136f 433d b6cb 263d 073e e33c
00000130: 45fb 9b3c ccc6 eabc 85b8 b03d 409f 003d
00000140: 7de4 643d 9059 9bbc 39b0 713d c962 903d
00000150: 8159 863d b3f0 2c3d 935d 263d 0dab 543d
00000160: bca0 0f3d effd 5e3d f11e d3bc 0aee 0dbd
00000170: 07da d5bc 26a0 8dbb 235a e43c 6b3e 8e3b
00000180: 73f8 15bd 43ee 8ebc 8952 733d b9f4 b63c
00000190: 0a01 1c3b 6ce2 a93c b461 d03b 72f6 e13c
000001a0: d8c2 01bc 3818 813d 771a b83c e0b3 77bc
000001b0: ae5a 0fbd 3365 943d 78ae 763d b87c 293d
000001c0: 6f63 223d d770 9b3d d3bf 7d3c b98d 453d
000001d0: b574 013c 30ad 463d f292 413d 1dd8 9f3d
000001e0: 23c5 fbbc cfe3 3dbd 53cc d5bc ce5b 11bd
000001f0: cd31 efbc ba0e 9e3c d1e8 01bc 5e54 92bc
00000200: 7c3e 26bd ed40 423c ed39 fcbc 4bc0 463d
00000210: 1d5d f53c cb1f 943d f882 96bc bba8 753d
00000220: 6eb8 dd3c 7856 9c3c 51e6 cb3c 5416 5ebc
00000230: 38fa a63d 322b f83c e99b 803b 006c 443d
00000240: 069b 973d 460a 403d 27d8 4c3d d85c febc
00000250: 5190 333b 7f2c 2fbd 7cb9 303d 1f18 5a3b
00000260: f5ce 3abc ceac 853d 6a20 993d a703 b23d
00000270: b9fd c73c faac 5e3d e05c bdbc 6bac 05bd
00000280: 1ff7 253d a6f3 4c3d ccb0 2dbd 977f 79bc
00000290: 8ba8 8b3d 4c41 b83c 40bc e53c 2302 3a3d
000002a0: 4b78 203d c96c 22bd d589 11bd 51e7 bbbc
000002b0: a427 8a3d 50ac d6bc 4502 043d fa8a a33d
000002c0: d010 013d 0e8a 753c 5227 28bd 6f69 803a
000002d0: 52ca 0c3d 7846 183c f777 0c3d 5f35 6e3c
000002e0: 41b4 8f3b 342f 303d 5ec8 eebb ae52 2bbc
000002f0: ec92 393d ed44 9bbc 0394 ffbc 42b4 553c
00000300: 7c3c 993d e5b9 1d3d e777 243b 7de1 1a3d
00000310: 9bc6 5f3d 31ce 183d f4ac 1c3d 832c febc
00000320: 23d3 bdbc 34f4 803d f12d 44bc a6c8 b2bb
00000330: 785d 863d 7e3b 86bb dae1 f03c c733 f73c
00000340: 8470 2b3d a3f6 833d 564c 863d f7c2 7f3b
00000350: 2ab6 823d 38ab 113d 0d34 743d e04c da3c
00000360: f2ab 6b3d 8cbf 28bc 432d 19bd df66 973d
00000370: 5065 9f3a 05d6 ad3b 23ab 0a3c ab09 c93b
00000380: ab2f ef3c eb6c 11bb 0426 5c3c 9b14 4f3d
00000390: faef 943d 7fa8 03bc 509e 4b3d 0aee 1e3c
000003a0: 3f95 fbbc a7f3 b7bc 32b5 603d 7b84 553d
000003b0: 4e14 023c 3b7f af3b f0fd c93b ad39 823d
000003c0: 0e78 7e3d 7f7d 28bd b6b0 a7bb 7e49 6dbb
000003d0: 465e f43c e603 b33c 7cdf e9bc c838 62ba
000003e0: 9648 333c 7ad3 b23c bf92 623c 06dc 49bc
000003f0: bca5 383d 28a0 feb9 345a 493d 3174 d43b

fc2.bias f4 [256]
-0.011213757 0.017738452 0.023100171 0.06852674 -0.049327485 -0.03642806 -0.018776279 0.07555441
-0.00840305 -0.03163388 0.020867188 0.07146962 0.07183303 0.047334563 0.010810415 -0.010891354
0.06063719 0.022181004 0.024168482 0.03134343 0.05821261 -0.02811063 0.05148976 -0.050375666
-0.042692564 0.023165578 0.034542426 0.045590736 0.055270508 0.019211294 0.057749417 -0.01357071
-0.047637757 0.058064558 -0.04804856 -0.04128485 -0.06826866 -0.01010161 0.06316147 -0.0069502466
-0.036058035 0.023925541 0.0018593947 0.037358295 0.05117155 -0.012492694 0.061798878 0.046080332
-0.019183025 -0.06475813 0.060384385 -0.025990596 0.010142635 -0.053786855 0.043148525 0.03419026
0.021311706 0.034579366 -0.027311103 -0.005685443 -0.06342478 0.03388656 -0.0398467 -0.016368708
0.018405344 0.03933902 -0.03636964 0.06870188 -0.021455612 0.04095092 0.06361329 -0.025454098
-0.035219595 -0.009186684 -0.015387615 -0.055796295 0.024529302 -0.0491346 0.041045457 -0.009373136
0.014658273 0.033941917 -0.014880138 -0.03133159 0.012901909 -0.056785304 -0.051794518 -0.014723738
0.015621537 0.062071227 -0.0130954515 0.016034208 -0.06731534 -0.050812103 0.047748126 -0.047279675
-0.049258932 -0.050920676 0.004869565 0.0277003 -0.031508863 -0.015027827 0.0012776183 0.090889245
-0.06134682 0.0737186 -0.062116385 -0.02243596 -0.033570662 0.054509252 0.04697591 -0.023902241
0.021754598 -0.06738766 -0.04960362 0.0035224694 -0.0055936365 0.01540678 0.022322401 -0.03032439
-0.01828691 -0.015116466 -0.03209897 -0.047899354 0.021411838 -0.0020314916 -0.034630466 0.010002115
0.0007270663 -0.039950863 -0.017998457 0.06480937 0.0033855604 0.0295725 -0.07293537 -0.040715564
-0.047403514 -0.024357127 0.005855476 0.061911393 -0.022947485 0.07397659 -0.013522374 0.032947365
0.062141407 0.045698136 0.015875122 0.042506147 -0.032549154 -0.029504377 0.017782591 -0.048581235
0.070494026 0.031705394 0.05789134 -0.013446574 0.03891808 0.06324082 -0.014083734 0.04499087
-0.0042366427 -0.0020745948 0.003461612 -0.008686247 0.0054649627 0.0291135 0.02702255 -0.06140083
0.008494516 -0.021084761 -0.007031417 -0.010732948 0.059679955 -0.040377315 0.014372951 0.018385625
-0.026004314 0.016623542 -0.04265953 0.037912004 0.057095002 -0.033294372 0.008924579 -0.058699843
-0.054815754 0.015497129 -0.011979299 -0.018417409 -0.0020656772 0.04514861 0.03217173 0.016736064
0.0048086643 -0.044412464 0.015031768 -0.025889039 0.03959838 0.039899338 0.021154422 0.005858313
0.07373015 -0.024652818 0.071581826 0.018061038 0.010921645 -0.02553824 -0.031974915 -0.052754782
0.03393237 0.078249194 -0.031498432 -0.050173286 -0.0032792944 0.055246558 0.044646606 -0.04083535
-0.06803136 0.05837589 -0.041620065 0.055466246 -0.0067567225 -0.00029058103 0.067422196 0.05637193
0.00037504022 0.012113093 0.03438941 -0.04647147 -0.018165901 0.015903566 -0.022502039 -0.036798082
-0.0045085284 0.012661285 -0.039489273 -0.018211316 -0.0037502882 -0.032136455 -0.023975579 -0.049901366
0.050242692 0.057655744 0.015956365 0.0047404 -0.05364682 0.02115958 -0.006118529 0.050812904
-0.0003601847 0.0044194753 -0.015396884 0.020330407 0.039362043 0.0029800339 -0.021050785 -0.032000955
00000000: e8b9 37bc 3b50 913c 923c bd3c bf57 8c3d
00000010: 9e0b 4abd 9735 15bd b6d0 99bc 45bc 9a3d
00000020: f2ac 09bc 8792 01bd aaf1 aa3c aa5e 923d
00000030: 321d 933d e3e1 413d 2b1e 313c a671 32bc
00000040: b45e 783d f0b4 b53c fbfc c53c f861 003d
00000050: 5970 6e3d 4448 e6bc ede6 523d b756 4ebd
00000060: 66de 2ebd bdc5 bd3c 5c7c 0d3d 5abd 3a3d
00000070: 5463 623d 0161 9d3c a78a 6c3d af57 5ebc
00000080: cf1f 43bd 1ad5 6d3d 91ce 44bd 4e1a 29bd
00000090: 70d0 8bbd 3981 25bc cd5a 813d e5be e3bb
000000a0: 97b1 13bd 7fff c33c efb6 f33a 0305 193d
000000b0: 4299 513d 28ae 4cbc d220 7d3d bbbe 3c3d
000000c0: b825 9dbc e99f 84bd 9e55 773d 3bea d4bc
000000d0: 4b2d 263c 9b4f 5cbd 82bc 303d 160b 0c3d
000000e0: e395 ae3c 18a3 0d3d 89bb dfbc f44c babb
000000f0: dae4 81bd a2cc 0a3d 4b36 23bd ab17 86bc
00000100: cec6 963c f421 213d 55f8 14bd 92b3 8c3d
00000110: aec3 afbc 27bc 273d af47 823d 1d85 d0bc
00000120: 6c42 10bd bf83 16bc 561c 7cbc a88a 64bd
00000130: adf1 c83c 5d41 49bd 481f 283d c891 19bc
00000140: 4129 703c ae06 0b3d d3cb 73bc 8e55 00bd
00000150: 8762 533c b597 68bd 7d26 54bd d53b 71bc
00000160: 7af1 7f3c 663e 7e3d 4e8e 56bc 2c5a 833c
00000170: a0dc 89bd 5a20 50bd 8a93 433d 55a8 41bd
00000180: bcc3 49bd 3392 50bd df90 9f3b bdeb e23c
00000190: 700f 01bd 4637 76bc c275 a73a 2424 ba3d
000001a0: ce46 7bbd c7f9 963d c06d 7ebd 9ecb b7bc
000001b0: 6481 09bd 1845 5f3d d069 403d a2ce c3bc
000001c0: b336 b23c 8b02 8abd 2a2d 4bbd 3bd9 663b
000001d0: d34a b7bb b86c 7c3c 78dd b63c db6a f8bc
000001e0: 6ece 95bc 0eab 77bc 367a 03bd 1d32 44bd
000001f0: e167 af3c c622 05bb add8 0dbd e9df 233c
00000200: 9898 3e3a 84a3 23bd 8071 93bc c6ba 843d
00000210: 47e0 5d3b 0742 f23c 245f 95bd 5dc5 26bd
00000220: 302a 42bd 9988 c7bc 4bdf bf3b cd96 7d3d
00000230: 5dfc bbbc 0a81 973d f38c 5dbc d1f3 063d
00000240: fd87 7e3d f82d 3b3d 8b0c 823c ed1a 2e3d
00000250: 4352 05bd 2ab3 f1bc ccac 913c 1efd 46bd
00000260: 2c5f 903d 84dd 013d 781f 6d3d 054f 5cbc
00000270: 9168 1f3d 6784 813d 76bf 66bc 5948 383d
00000280: 89d3 8abb edf5 07bb 36dc 623b c350 0ebc
00000290: 6e13 b33b 6f7f ee3c 655e dd3c 707f 7bbd
000002a0: 952c 0b3c f3b9 acbc cd67 e6bb 3fd9 2fbc
000002b0: f872 743d af62 25bd 877c 6b3c 739d 963c
000002c0: 0007 d5bc 182e 883c c2bb 2ebd 9e49 1b3d
000002d0: 73dc 693d ae5f 08bd 6638 123c 3f6f 70bd
000002e0: 7c86 60bd ace7 7d3c d244 44bc 1be0 96bc
000002f0: 5060 07bb c0ed 383d 81c6 033d 121a 893c
00000300: 0092 9d3b d8e9 35bd ce47 763c 4015 d4bc
00000310: e931 223d 7d6d 233d 0a4c ad3c 17f7 bf3b
00000320: d5ff 963d b5f4 c9bc 7e99 923d bef4 933c
00000330: b3f0 323c 9235 d1bc 21f8 02bd 6615 58bd
00000340: abfc 0a3d 1d41 a03d 8004 01bd 8182 4dbd
00000350: 6ee9 56bb 374a 623d 5cdf 363d f842 27bd
00000360: 0754 8bbd 8f1b 6f3d cd79 2abd 9330 633d
00000370: 7f67 ddbb 2059 98b9 a614 8a3d 41e6 663d
00000380: 0ca1 c439 ff75 463c e9db 0c3d de58 3ebd
00000390: a8d0 94bc 3248 823c 3256 b8bc 96b9 16bd
000003a0: 47bc 93bb 4771 4f3c 81bf 21bd e62f 95bc
000003b0: 65c7 75bb 84a1 03bd 6f68 c4bc 6065 4cbd
000003c0: 48cb 4d3d 6e28 6c3d ecb6 823c 5b55 9b3b
000003d0: c5bc 5bbd db56 ad3c f17d c8bb 3121 503d
000003e0: 2cd7 bcb9 3fd1 903b 3643 7cbc f48b a63c
000003f0: 183a 213d ac4c 433b b272 acbc 6f13 03bd

fc3.weight f4 [256, 256]
0.013789037 -0.036029167 0.02364234 -0.0041813124 0.058872435 -0.0035933394 0.048881397 -0.029528668
-0.064319104 -0.014944823 -0.012452841 -0.03612061 -0.02910399 -0.023277432 0.028929196 -0.030250965
-0.005552509 0.04679643 -0.050459653 -0.026249014 0.018706731 0.021422267 0.023520065 -0.0060046134
-0.032187134 0.029721515 -0.035370193 0.025874477 -0.00049022987 0.044355437 -0.05925666 0.01877896
0.047528796 -0.027108297 0.03419644 -0.018222025 0.013002047 0.026490139 -0.0008789004 0.04311327
-0.04059852 -0.020257547 -0.052521598 0.045305114 -0.050152346 -0.03999304 -0.07040186 0.0035397708
0.017435495 -0.055564582 -0.052059114 0.04376566 -0.049239185 -0.052342895 -0.029149825 0.04174773
-0.057429887 -0.010609215 0.0068845716 0.0453828 0.05429883 -0.056633808 0.032808412 0.021765828
-0.020530429 0.0058877217 -0.061436795 -0.017157996 0.0073660933 -0.044182766 -0.0631559 0.024998363
0.041907452 0.05299518 0.03651968 -0.00891668 -0.033830892 0.013529988 0.057493284 0.03249397
-0.02307574 0.0062371846 -0.007821251 -0.003542704 -0.047883842 0.041381657 -0.016117208 0.019540397
0.0021620807 -0.003048084 -0.0123711275 -0.062039427 0.042304553 -0.05097484 0.018488998 0.016215928
-0.035177857 -0.040943004 0.03920683 0.00808717 -0.027329512 0.030352281 -0.018951211 -0.018388221
-0.0036436773 0.025945168 0.025258413 -0.035386637 0.021726307 -0.05075838 0.06755694 0.032246534
0.03004466 -0.035838928 -0.014738861 0.005471334 0.04713194 -0.062297687 -0.050022863 -0.029840678
0.039682854 0.011235543 0.05511761 -0.056033574 0.0067693098 0.041824553 -0.06409637 0.0068670353
0.05473262 0.013428003 -0.0090789525 -0.04621244 0.025563646 0.036960077 -0.0034974618 0.008658656
-0.038122497 -0.041512676 0.023201754 -0.053227875 0.002960703 -0.042903613 -0.03548762 0.049380705
-0.03735888 -0.03229356 -0.004140708 0.03527213 0.033676546 -0.005266493 -0.048790798 -0.042611234
0.032036673 0.010371094 0.013119106 -0.054466154 -0.021509768 0.020074973 -0.013401477 0.012193701
0.026310807 -0.021928638 -0.048383165 0.044898782 -0.06685388 -0.048368696 0.016641531 -0.027161658
-0.0648189 0.048865605 -0.017318986 -0.049816046 -0.027147772 -0.03785024 0.011954689 -0.058055725
-0.04529438 0.03914181 0.028072488 0.019411054 -0.06688771 -0.02562633 0.052773822 0.02551405
-0.05419569 -0.008025171 0.050519902 -0.010969389 0.05021757 0.009912358 -0.020451603 -0.05159869
-0.03820708 0.016605444 -0.050455272 0.044763736 0.0059673646 -0.06591121 -0.055941734 -0.05977375
-0.029979223 0.040220335 0.03136507 0.0013918759 0.0019966066 0.051634513 0.0055561312 0.021149725
-0.062084984 0.051037498 0.01635835 -0.05726601 -0.031263653 0.031164385 -0.0033885099 -0.036394127
-0.06241046 -0.04917286 -0.06316678 -0.014676557 -0.061039113 -0.04193213 0.022622606 0.0057887137
-0.0035842862 0.0380171 -0.04975979 0.0005040634 0.029554889 -0.044838734 0.03579616 0.034285065
-0.030104507 -0.016402274 0.003957604 0.03615851 -0.06681711 -0.01773152 0.03874279 0.034597434
-0.016213633 -0.057718776 -0.024775956 -0.05475345 -0.0073848455 -0.014612683 0.007882006 0.021376833
0.004500524 0.04080902 0.03972733 -0.021626096 0.03641724 0.053054154 -0.06911879 0.03655057
00000000: 6aeb 613c 5293 13bd 95ad c13c 6403 89bb
00000010: 3924 713d 3b7e 6bbb dc37 483d 1be6 f1bc
00000020: bcb9 83bd 22db 74bc 0007 4cbc 34f3 13bd
00000030: 7e6b eebc 50b0 bebc ecfc ec3c dfd0 f7bc
00000040: d2f1 b5bb 9dad 3f3d c8ae 4ebd 2c08 d7bc
00000050: dc3e 993c c07d af3c 27ad c03c 59c2 c4bb
00000060: a8d6 03bd 897a f33c 56e0 10bd b6f6 d33c
00000070: c582 00ba 0cae 353d 1db7 72bd 55d6 993c
00000080: 8ead 423d 3812 debc 9111 0c3d 5b46 95bc
00000090: 8a06 553c d901 d93c 0266 66ba 8a97 303d
000000a0: a24a 26bd 28f3 a5bc e320 57bd db91 393d
000000b0: 8c6c 4dbd becf 23bd da2e 90bd 80fb 673b
000000c0: e2d4 8e3c b097 63bd f03b 55bd 9f43 333d
000000d0: 07af 49bd 8165 56bd 9dcb eebc abff 2a3d
000000e0: 9a3b 6bbd 46d2 2dbc f997 e13b 51e3 393d
000000f0: 7368 5e3d daf8 67bd 1d62 063d 404e b23c
00000100: 6e2f a8bc caed c03b 26a5 7bbd ed8e 8cbc
00000110: 455f f13b fdf8 34bd e157 81bd 5ec9 cc3c
00000120: 26a7 2b3d 7911 593d a995 153d 4417 12bc
00000130: 4392 0abd e2ac 5d3c 147e 6b3d 6618 053d
00000140: 5609 bdbc 4c61 cc3b b424 00bc b62c 68bb
00000150: d921 44bd d07f 293d 3c08 84bc 2f13 a03c
00000160: b2b1 0d3b 5dc2 47bb 45b0 4abc 0e1d 7ebd
00000170: 8a47 2d3d feca 50bd 3d76 973c 44d7 843c
00000180: a816 10bd dab3 27bd 5797 203d 0d80 043c
00000190: 24e2 dfbc 59a5 f83c 923f 9bbc e5a2 96bc
000001a0: c3ca 6ebb f68a d43c bbea ce3c 94f1 10bd
000001b0: 5efb b13c 05e8 4fbd 4b5b 8a3d f114 043d
000001c0: 3820 f63c d7cb 12bd 437b 71bc e048 b33b
000001d0: 6c0d 413d dc2b 7fbd c6e4 4cbd 7074 f4bc
000001e0: 7d8a 223d 4815 383c 01c3 613d 7683 65bd
000001f0: 16d1 dd3b 3950 2b3d f544 83bd de04 e13b
00000200: 502f 603d 2001 5c3c e3bf 14bc 4149 3dbd
00000210: da6a d13c 7363 173d ac35 65bb 09dd 0d3c
00000220: 5626 1cbd 3209 2abd 9b11 be3c 7905 5abd
00000230: 5b08 423b b3bb 2fbd 775b 11bd 6c43 4a3d
00000240: a005 19bd 4146 04bd c7ae 87bb 8279 103d
00000250: 6bf0 093d 8c92 acbb dcd8 47bd 1e89 2ebd
00000260: e338 033d 85eb 293c 85f1 563c e717 5fbd
00000270: 4135 b0bc 4574 a43c de91 5bbc 17c8 473c
00000280: c389 d73c b0a3 b3bc 6d2d 46bd c9e7 373d
00000290: b0ea 88bd 411e 46bd d253 883c 2082 debc
000002a0: c5bf 84bd 4d27 483d 8ce0 8dbc e90b 4cbd
000002b0: 0165 debc da08 1bbd 9add 433c d7cb 6dbd
000002c0: 9a86 39bd 2a53 203d 46f8 e53c ee03 9f3c
000002d0: 6cfc 88bd 4fee d1bc 5d29 583d d702 d13c
000002e0: 4dfc 5dbd 027c 03bc f5ed 4e3d f4b8 33bc
000002f0: f0b0 4d3d 7167 223c 1f8a a7bc 2659 53bd
00000300: 077f 1cbd 2408 883c 30aa 4ebd 2e5a 373d
00000310: e289 c33b 75fc 86bd 2923 65bd 52d5 74bd
00000320: fd96 f5bc 14be 243d a978 003d 9b6f b63a
00000330: 80d9 023b b67e 533d 3510 b63b 3042 ad3c
00000340: d34c 7ebd b20c 513d f201 863c c48f 6abd
00000350: 510e 00bd 744c ff3c c311 5ebb 0212 15bd
00000360: 1ca2 7fbd 7b69 49bd 965d 81bd f175 70bc
00000370: 2604 7abd 06c1 2bbd 0b53 b93c 40af bd3b
00000380: 58e6 6abb d2b7 1b3d ecd0 4bbd 1f23 043a
00000390: 181d f23c d2a8 37bd ff9e 123d 7f6e 0c3d
000003a0: ba9d f6bc 105e 86bc caae 813b f21a 143d
000003b0: 69d7 88bd b141 91bc c3b0 1e3d 0ab6 0d3d
000003c0: 74d2 84bc 866a 6cbd f2f6 cabc 2745 60bd
000003d0: 93fc f1bb 096a 6fbc 8723 013c 781e af3c
000003e0: 2279 933b 5c27 273d 20b9 223d 3629 b1bc
000003f0: 3e2a 153d 504f 593d 278e 8dbd 0db6 153d

fc3.bias f4 [256]
0.0019944303 -0.014527836 -0.02208778 0.044977948 -0.035992663 0.025598705 0.011578949 0.010424564
0.033917822 0.05083304 0.03859182 -0.06140211 0.0025280535 -0.05947109 -0.0448583 0.018875336
0.08204589 -0.057265442 -0.0002775029 0.045734167 0.007812912 -0.024538787 -0.0628096 -0.033388507
0.017405089 -0.049705558 -0.040296685 -0.038335957 0.007756213 0.0231178 -0.042724043 0.04180473
0.06641313 -0.01621825 0.013699349 -0.04148785 0.050940122 -0.047428034 0.08176088 0.0053250194
-0.003659276 0.034573648 0.058860846 -0.067091204 -0.006555438 -0.020340294 -0.0010048824 -0.057048853
0.022951735 -0.03658252 0.06810852 0.010453198 -0.041757107 0.069510885 0.0628913 0.017737087
0.040385135 -0.0404043 -0.03410701 -0.012568737 -0.05024014 0.0046257568 -0.023265744 0.046715677
-0.01626972 0.05153747 -0.03495646 0.02804149 0.026102794 0.07149726 0.06535037 0.0005074696
-0.0316299 -0.016164826 0.023903688 0.050618526 0.033650983 -0.037678987 -0.05260831 -0.019849714
-0.05018003 0.07807447 0.035752643 0.04378905 -0.034727532 -0.038114503 0.012161111 0.068282545
0.030010818 -0.034870524 -0.0487648 -0.06418436 -0.007167725 -0.030803934 0.0009288079 -0.028512578
0.021950824 -0.028401189 0.047913413 -0.020383647 -0.014562627 -0.06356336 -0.043472327 -0.04429677
0.0073345397 -0.03474435 0.03959173 -0.02355393 0.0062315306 -0.00059439545 -0.024004849 -0.044491593
0.01079644 0.040997162 0.080395326 -0.007845288 -0.0050441003 -0.05571853 -0.0123085715 -0.030824533
0.080293834 0.017529473 0.020606231 -0.0034179955 0.01248173 -0.0001646606 0.04423469 0.07626577
0.026215535 0.046587612 -0.047442995 0.011426093 -0.017141843 -0.041977376 0.050147846 0.0016560615
-0.03725063 0.014697341 0.027307065 -0.012366659 -0.019326374 -0.010976566 0.025846912 -0.013079391
0.02071966 -0.0030218463 -0.002562556 -0.062938616 0.0042861253 -0.055284597 0.034434374 0.023703286
0.021900114 0.01479138 -0.00064981834 -0.02227884 -0.042683415 0.033856425 -0.0044491966 0.03766107
-0.010554493 -0.0046099704 -0.00400951 -0.041106794 -0.0034940802 -0.042446114 -0.0690372 -0.054435495
-0.04765409 -0.066351235 -0.024021469 -0.023683582 0.052344795 0.060515944 0.021743204 0.027451688
0.031068506 0.03836023 -0.06638625 0.080921575 0.020384628 -0.04040065 -0.045514114 -0.014634462
-0.056020275 0.06811938 0.052659262 -0.029895823 0.053334806 0.041140936 -0.06692359 -0.037641533
0.03460294 -0.06564956 0.022995504 -0.003924901 -0.012751738 -0.038905103 -0.035271898 0.012362378
0.08009284 0.037028424 0.030854657 -0.06371233 0.04943289 0.018909106 0.05001925 -0.034555417
0.04647436 0.024007952 0.029720776 -0.009029819 0.058146745 0.0071894224 -0.020230895 -0.044457432
0.036162082 0.061147694 -0.027338484 -0.0214274 0.06614199 -0.018717583 -0.05980343 -0.009530707
-0.045551218 -0.019747399 0.030992096 -0.07293605 0.049665093 -0.05595739 0.07187962 0.033327624
0.009490309 -0.01673531 0.026007026 -0.04124731 0.0064224754 0.0016881797 -0.060021356 0.0059339944
0.07627277 -0.010681658 0.035038352 -0.046622362 0.023880903 0.027162448 -0.014017239 0.021377763
-0.021691069 0.059903044 0.061048757 -0.048159663 -0.029422225 0.08091081 -0.012054993 0.028079392
00000000: fdb4 023b 2906 6ebc 6ff1 b4bc cc3a 383d
00000010: 0b6d 13bd 60b4 d13c a2b5 3d3c cacb 2a3c
00000020: 6aed 0a3d 4e36 503d 7512 1e3d c780 7bbd
00000030: b3ad 253b f597 73bd 56bd 37bd 73a0 9a3c
00000040: ad07 a83d 2b8f 6abd cf7d 91b9 c053 3b3d
00000050: ba01 003c 9105 c9bc 52a2 80bd 63c2 08bd
00000060: 1e95 8e3c 0e98 4bbd 230e 25bd 2a06 1dbd
00000070: d527 fe3b 8a61 bd3c 68ff 2ebd 703b 2b3d
00000080: 9b03 883d 23dc 84bc 3c73 603c 2aef 29bd
00000090: 97a6 503d e643 42bd 4072 a73d 807d ae3b
000000a0: 77d0 6fbb 199d 0d3d 1218 713d 1d67 89bd
000000b0: 00cf d6bb b0a0 a6bc 42b6 83ba 0fac 69bd
000000c0: 4705 bc3c 8dd7 15bd 7b7c 8b3d e443 2b3c
000000d0: 8009 2bbd b95b 8e3d 27cd 803d 5e4d 913c
000000e0: e26a 253d fb7e 25bd cbb3 0bbd 1bed 4dbc
000000f0: 9bc8 4dbd a993 973b cd97 bebc f058 3f3d
00000100: 1348 85bc f418 533d 812e 0fbd 44b7 e53c
00000110: 87d5 d53c 286d 923d 6ad6 853d b507 053a
00000120: 5b8e 01bd 196c 84bc abd1 c33c 5f55 4f3d
00000130: 9dd5 093d 4855 1abd d07b 57bd de9b a2bc
00000140: 9389 4dbd 82e5 9f3d 5d71 123d 265c 333d
00000150: 753e 0ebd f41d 1cbd 663f 473c b8d7 8b3d
00000160: 3fd9 f53c 65d4 0ebd 99bd 47bd 1773 83bd
00000170: 3cdf eabb 8858 fcbc 3e7b 733a 3693 e9bc
00000180: 37d2 b33c 9ca9 e8bc db40 443d 9bfb a6bc
00000190: 1698 6ebc 822d 82bd 0a10 32bd 8870 35bd
000001a0: 9456 f03b 1750 0ebd f02a 223d 2cf4 c0bc
000001b0: de31 cc3b 34d1 1bba d1a5 c4bc d13c 36bd
000001c0: 8de3 303c a4ec 273d 4ea6 a43d 8689 00bc
000001d0: fb48 a5bb 1d39 64bd e4a9 49bc bb83 fcbc
000001e0: 1871 a43d f899 8f3c 66ce a83c 7300 60bb
000001f0: 2c80 4c3c bea8 2cb9 6f2f 353d 3a31 9c3d
00000200: f6c1 d63c a7d2 3e3d 9653 42bd 8234 3b3c
00000210: 0d6d 8cbc 78f0 2bbd d467 4d3d 3410 d93a
00000220: 1e94 18bd 1ecd 703c 11b3 df3c 879d 4abc
00000230: 5852 9ebc 0ed7 33bc e7bc d33c f14a 56bc
00000240: 47bc a93c 2b0a 46bb 8ef0 27bb f6e5 80bd
00000250: a072 8c3b 1a72 62bd 0f0b 0d3d 652d c23c
00000260: de67 b33c 8b57 723c 9258 2aba 1d82 b6bc
00000270: ced4 2ebd 09ad 0a3d 91ca 91bb 7e42 1a3d
00000280: c1ec 2cbc 3c0f 97bb 3562 83bb 995f 28bd
00000290: f0fc 64bb fadb 2dbd 6063 8dbd c1f7 5ebd
000002a0: ef30 43bd 28e3 87bd acc8 c4bc 1204 c2bc
000002b0: 7f67 563d 91df 773d ce1e b23c 5de2 e03c
000002c0: 6183 fe3c 9e1f 1d3d 84f5 87bd 36ba a53d
000002d0: aafd a63c 277b 25bd 026d 3abd 62c5 6fbc
000002e0: 8475 65bd 2c82 8b3d 3db1 573d 16e8 f4bc
000002f0: 9975 5a3d 6683 283d 3c0f 89bd 022e 1abd
00000300: d0bb 0d3d 4773 86bd 1161 bc3c 759c 80bb
00000310: aaec 50bc f55a 1fbd 4479 10bd 928b 4a3c
00000320: b707 a43d 1eab 173d e8c2 fc3c 9c7b 82bd
00000330: 247a 4a3d 45e7 9a3c fce0 4c3d fb89 0dbd
00000340: e65b 3e3d 53ac c43c fc78 f33c cef1 13bc
00000350: 482b 6e3d 3f95 eb3b 43bb a5bc ff18 36bd
00000360: b11e 143d 0176 7a3d f5f4 dfbc 8488 afbc
00000370: 7475 873d 9e55 99bc 71f4 74bd af26 1cbc
00000380: ea93 3abd 4cc5 a1bc 23e3 fd3c 7f5f 95bd
00000390: a06d 4b3d 9433 65bd 9f35 933d 8c82 083d
000003a0: 3e7d 1b3c 7d18 89bc b00c d53c f0f2 28bd
000003b0: a173 d23b e945 dd3a f4d8 75bd f471 c23b
000003c0: e634 9c3d 1f02 2fbc 6084 0f3d 17f7 3ebd
000003d0: e2a1 c33c c883 de3c 90a8 65bc 6b20 af3c
000003e0: 78b1 b1bc e55c 753d 430e 7a3d 1143 45bd
000003f0: e106 f1bc 91b4 a53d 4e82 45bc c106 e63c

action_out.weight f4 [2, 256]
0.0022376396 0.071197316 0.04518546 -0.005322753 -0.0141335325 -0.056844506 -0.04102634 0.08179862
0.0044297203 0.033486634 -0.05009364 -0.047495045 -0.024056513 0.05768547 0.037346076 0.014989552
0.038050145 0.026321825 -0.020389184 -0.045911815 0.04925757 0.016870206 -0.0057196673 -0.03935148
-0.018374776 0.007290029 0.05287579 -0.016867796 -0.048469983 -0.0023297123 0.04423804 -0.03720649
0.054715686 0.04633803 0.037775703 0.063753724 0.039323084 -0.021785382 0.06092932 0.07465135
-0.012929007 0.013963867 -0.018785093 0.009820566 0.015376538 0.039997067 0.03516379 0.04748921
0.04077657 -0.016371772 0.05838545 -0.043813772 0.07165395 0.06698737 0.024256453 0.07137306
-0.045653306 0.014660917 -0.057726152 0.006859008 -0.00026986434 0.06718319 0.059754215 0.036863793
0.046497457 0.05218182 -0.054750398 -0.018814836 0.022257587 0.04754582 0.030132879 -0.021687437
0.039273866 0.06328604 -0.020139918 -0.045339216 -0.038413975 0.046425007 -0.047439106 0.03627306
0.0230628 0.026688218 -0.015514619 -0.0450189 -0.05543327 -0.009283502 0.06180278 0.03726
-0.01844652 0.046743955 0.008194682 -0.03255642 -0.049820323 0.007604521 0.0044150413 0.021095404
-0.026173692 -0.045904282 0.026435934 -0.02172558 0.048852026 0.030325772 -0.004323222 0.05188555
0.028027333 -0.0030705042 0.048366997 0.005018271 0.05203321 0.00865834 -0.024036586 -0.033220433
0.006530637 0.020147916 0.06668593 -0.0011366336 -0.0018358758 0.03167847 0.00053193246 0.0013463389
0.048029758 -0.026215382 -0.0038994886 -0.056753855 0.03893614 -0.011925389 0.062920004 0.037987757
0.005172181 -0.03554463 -0.013726313 0.0135640735 0.050819177 0.023926243 0.042768735 0.029309321
0.018750979 0.03744023 0.05295558 0.063874125 -0.043082807 -0.038451318 -0.048017766 0.055845138
0.024731556 0.040971536 0.05758087 0.04381423 -0.0041586086 0.052970704 0.0041366364 -0.0048881643
-0.052186687 -0.021546556 -0.01484079 0.060883187 -0.051748358 0.008197894 0.044704802 -0.044943094
-0.0016937774 -0.028370474 0.0072441273 0.033176042 0.013962529 -0.027986396 -0.045734394 0.035130676
0.033016436 -0.05404731 0.0488715 -0.0034520798 0.045354374 0.040810663 0.031993613 -0.03297908
0.0074198623 0.08393778 -0.006038951 0.07780417 -0.009481689 -0.0418087 0.054565247 0.013695748
-0.04187093 0.050214656 0.032842755 -0.057140943 -0.0449761 0.066108815 0.00373291 -0.009730488
0.05456306 0.01804476 0.009367491 0.038931157 -0.007906864 -0.009723176 -0.038370885 0.06661732
0.019658854 0.0234825 -0.0045769066 -0.047051724 0.019598966 0.070187286 0.024451587 0.01821507
-0.030899748 0.06201516 0.0076593067 0.036755014 0.0665903 0.02035884 -0.013340017 -0.045506362
-0.028969118 0.054419234 -0.0074768662 0.014783669 0.01568531 0.018913656 -0.03378731 0.016682439
0.021555424 0.047002178 0.021464396 -0.031133696 0.008316784 -0.013138658 0.03669402 0.0362211
-0.058169246 0.046326805 -0.050629083 -0.045594864 0.05063913 -0.047919266 0.020603929 0.043012638
0.067498 0.040129628 -0.01311444 -0.009733651 -0.01466398 0.016612139 0.038085055 0.057235956
0.013644268 0.03327856 0.0035669564 0.04949991 0.075473525 0.036107574 0.023304522 0.025494868
00000000: 5da5 123b e6cf 913d 6414 393d 7d6a aebb
00000010: 5590 67bc c9d5 68bd 3c0b 28bd 0986 a73d
00000020: 3027 913b 4829 093d fd2e 4dbd 2a8a 42bd
00000030: 2a12 c5bc 9947 6c3d 33f8 183d bd96 753c
00000040: 78da 1b3d dea0 d73c 3807 a7bc 070e 3cbd
00000050: 4ec2 493d 6333 8a3c 0c6c bbbb 042f 21bd
00000060: b386 96bc 32e1 ee3b 4994 583d 552e 8abc
00000070: 7688 46bd 16ae 18bb f232 353d d565 18bd
00000080: 8e1d 603d f2cc 3d3d b2ba 1a3d 5091 823d
00000090: 3e11 213d 4277 b2bc 0691 793d cfe2 983d
000000a0: 30d4 53bc b4c8 643c 32e3 99bc 70e6 203c
000000b0: e0ed 7b3c f7d3 233d e807 103d 0c84 423d
000000c0: 5505 273d 181e 86bc 9525 6f3d 1276 33bd
000000d0: 4ebf 923d ad30 893d 78b5 c63c 0a2c 923d
000000e0: f6fe 3abd 5834 703c 4272 6cbd 88c1 e03b
000000f0: 947c 8db9 5797 893d d6c0 743d 7dfe 163d
00000100: 1e74 3e3d 9bbc 553d f441 60bd 9221 9abc
00000110: 8b55 b63c 68bf 423d 3ad9 f63c daa9 b1bc
00000120: a2dd 203d 1d9c 813d 78fc a4bc 9db5 39bd
00000130: f957 1dbd 2628 3e3d 824f 42bd 0f93 143d
00000140: 32ee bc3c 40a1 da3c 0731 7ebc bd65 38bd
00000150: ff0d 63bd d419 18bc e924 7d3d f19d 183d
00000160: 281d 97bc 9776 3f3d fd42 063c e159 05bd
00000170: 6510 4cbd 582f f93b 0dac 903b 45d0 ac3c
00000180: 366a d6bc 2106 3cbd 2c90 d83c d8f9 b1bc
00000190: 1019 483d c16d f83c d1a9 8dbb f185 543d
000001a0: 9499 e53c 833a 49bb 791c 463d 4f70 a43b
000001b0: c620 553d b6db 0d3c 60e8 c4bc 2612 08bd
000001c0: f4fe d53b 3e0d a53c a292 883d 18fb 94ba
000001d0: c5a1 f0ba 49c1 013d 6271 0b3a a377 b03a
000001e0: daba 443d a4c1 d6bc 908e 7fbb bb76 68bd
000001f0: 807b 1f3d b562 43bc 34dc 803d 0d99 1b3d
00000200: 667b a93b 3f97 11bd 54e4 60bc d93b 5e3c
00000210: c527 503d f800 c43c 452e 2f3d 1a1a f03c
00000220: a79b 993c ed5a 193d f3e7 583d 70d0 823d
00000230: 9977 30bd 217f 1dbd 47ae 44bd dfbd 643d
00000240: d599 ca3c c5d1 273d ebd9 6b3d 8d76 333d
00000250: f044 88bb cff7 583d 9f8c 873b e52c a0bb
00000260: b5c1 55bd 6782 b0bc c926 73bc a660 793d
00000270: 16f6 53bd 7650 063c 621c 373d 4016 38bd
00000280: bd01 deba 3269 e8bc 2560 ed3b 9ae3 073d
00000290: 17c3 643c ba43 e5bc fd53 3bbd 2fe5 0f3d
000002a0: 3e3c 073d b660 5dbd 7b2d 483d 4a3c 62bb
000002b0: 82c5 393d 1529 273d bc0b 033d 1215 07bd
000002c0: 5122 f33b 92e7 ab3d 65e2 c5bb cb57 9f3d
000002d0: 1659 1bbc 993f 2bbd cf7f 5f3d 2164 603c
000002e0: da80 2bbd e2ad 4d3d 2086 063d 9f0c 6abd
000002f0: dc38 38bd 0f64 873d d6a3 743b a06c 1fbc
00000300: 847d 5f3d 9bd2 933c 1b7a 193c 4776 1f3d
00000310: cb8b 01bc f54d 1fbc ca2a 1dbd a96e 883d
00000320: 9b0b a13c 5f5e c03c e0f9 95bb 4fb9 40bd
00000330: 038e a03c 5abe 8f3d b24e c83c c537 953c
00000340: 7821 fdbc 9c03 7e3d ecfa fa3b 6d8c 163d
00000350: 7f60 883d 95c7 a63c 1690 5abc e164 3abd
00000360: a550 edbc b4e6 5e3d 8000 f5bb 3437 723c
00000370: 7b7e 803c d0f0 9a3c 9064 0abd 9ca9 883c
00000380: 0095 b03c 5b85 403d 1ad6 af3c 180c ffbc
00000390: 1f43 083c 8743 57bc 784c 163d 935c 143d
000003a0: e042 6ebd 2dc1 3d3d 7160 4fbd aec1 3abd
000003b0: fa6a 4f3d fe46 44bd 92c9 a83c 052e 303d
000003c0: 643c 8a3d f75e 243d f3dd 56bc e479 1fbc
000003d0: 3141 70bc 2e16 883c 13ff 1b3d 4070 6a3d
000003e0: 358c 5f3c 194f 083d 99c3 693b 6bc0 4a3d
000003f0: dd91 9a3d 89e5 133d 20e9 be3c 9dda d03c

action_out.bias f4 [2]
0.038373668 0.025176844
00000000: b52d 1d3d ab3f ce3c
