winning_teams/Lanterne-Rouge-BOKU-AIT/results/submitted_agent.pt (torch, 558879 bytes, 6 tensors)

linear1.weight f4 [400, 1]
00000000: d9aa d33e 88fa 0ebe 20e9 2cbf e8cb 52bf
00000010: 746a d63e 99a9 383e 3e21 3cbf 47c7 013b
00000020: b58d e53d 368a 5ebf a2ca 65bf 8024 a6bd
00000030: 396a 3a3e 8077 3ebd e883 76bf d954 c43d
00000040: 782a f8be f40f 213f d431 593c 5220 023d
00000050: c0de 69bd 22e0 03bf bcaa 8f3e e2ae 55bf
00000060: 0036 94be 2c94 17bf c3b0 ea3e 8e13 59bf
00000070: 22ba 19bf eb29 4b3e 8ebe 193d aa34 69bf
00000080: 2011 0cbd 4dec 123f 4a3a 58bf e018 43bd
00000090: 5576 db38 20bc 0fbf e38a bd3d ccdb 9f3c
000000a0: 6033 2bbe 4464 9ebe 18b1 65be 403f 14be
000000b0: e0fe fbbe 1cda ccbe 988a 1dbe d355 963d
000000c0: 10a1 cfbe 52f2 0dbf d1a1 803e 717d 993e
000000d0: 2103 b23e 0be5 3f3e 72fd 42bf 4591 123e
000000e0: 74b0 f3be c00f acbe 5cb0 0abf 4817 45bf
000000f0: 40b2 6dbd 443f 2bbf 8030 ddbd c069 31bf
00000100: e4f4 d73e 0537 d03e e8ed 903d 0755 963e
00000110: 9cfd b7be cc6e a6be 02f3 57bf e0b2 533b
00000120: 740c 01bf 6c24 41bf b604 35bf 7066 65bf
00000130: 6e28 7fbf 3c41 433f 7dfc 253e 00f4 ebbe
00000140: 063b fe3e 04d1 4fbf 90ca 7abf b29f 18bf
00000150: 7549 cb3e 5807 24be 9944 3a3e 344c e5be
00000160: afd1 ed3e 48d1 14be 3fef b93e 54fc b2be
00000170: f7d9 7d3e 38f4 41be 8c67 be3e 5f4f bd3e
00000180: fd61 b13d 30cf 37bf c0de 443f d4f5 5ebf
00000190: 702a fbbd ecf4 4ebf 7cd8 f1be d1e4 ee3e
000001a0: ecd6 66bf 2804 4ebf 4085 e0bd 018e 473f
000001b0: 7b71 163f c8bd d2be bace 0c3f d6c1 3bbf
000001c0: a091 183f 3ef9 09bf a064 92be 609a d7bd
000001d0: d565 c23e 479b 213e a03f acbd 2658 7abf
000001e0: 690c 443f 16d0 963e 19cf ff3e 90a2 a2bd
000001f0: 7860 63bf b0f8 1fbf 41c0 ca3e 7ba8 2c3f
00000200: ffbe 1e3f c84c b6be 9d01 943e abb7 0d3e
00000210: e4fc 6bbf aef0 ae3e bd70 9d3d f0c6 42bf
00000220: f6ba 25bf 5aab 5dbf 6c2c d23d c273 013e
00000230: 33fd e9bb f04a 9bbd d6e6 1c3e 4013 fbbe
00000240: 4065 52be a758 8b3e 989e b6be 6c1b cebe
00000250: c5e7 1c3e 21db 1b3e 7c3a 5dbf bf31 2e3e
00000260: 7863 63bf 9053 9ebe 6d7f dc3e d480 c2be
00000270: d8d0 1abf 18bd 27be 19b4 023f b36d 6c3d
00000280: eccf 58bf 029c 48bf 0c93 b03e debb 6fbf
00000290: 8fd8 2d3e 94a1 773c 5822 c2be 38f7 d7be
000002a0: 2a5f dd3e 1ede 60bf 9437 22bf f870 533f
000002b0: 3291 32bf 86fb 44bf 4007 a5bd c377 423f
000002c0: be6c 203f 3ce8 c0be 838f 4b3f c889 1b3e
000002d0: 4475 1d3e e089 b1bd 1481 153f 5f26 203e
000002e0: 704a 78be 3c92 8abe fdae 033c 4cd7 93be
000002f0: 0c2d d4be 34be a23e 6d26 4b3d a5b6 6f3e
00000300: 48db 3bbe 80fb 4ebd a3e9 843c 62b0 64bf
00000310: 2527 6d3e a99d a93d 8c66 2cbf 36d6 353e
00000320: 67b4 4a3d 1a12 7abf ab90 913e 98f2 213f
00000330: 0d16 c53e 5000 1d3e 0aa3 24bf ec0b ffbe
00000340: b63f ae3d 7180 633e c093 37bd 3418 63bf
00000350: 1e61 4ebf 68ed 8abe 6bb8 713e 50c4 033e
00000360: 8a4d 423e 3e1c 223d 7bc7 8c3e f2e2 55bf
00000370: 0109 ee3d fc46 5b3d de63 05bf d2b9 44bf
00000380: 90ec 14be 61d0 963d f864 dc3e 98ca a2be
00000390: 70a9 48bf 66fd 68bf 4a55 263f 4094 e2be
000003a0: c2d0 003d ea2a 7cbf ee47 4a3f e8e4 e73d
000003b0: 50e2 1abf e870 67be f2d1 67bf 59a4 f43e
000003c0: e085 89bd c856 a83d 807f 1ebe dc65 0c3f
000003d0: e091 49bd bc06 1cbf a8ac 073e dd37 083f
000003e0: b1e6 ee3e 36a0 e23e 6af1 4fbf 7a42 083e
000003f0: 1883 02be 2978 623d 60b3 48bf 2ca7 be3e
0.41341284 -0.13962758 -0.6754322 -0.82342386 0.41878092 0.18033446 -0.73488224 0.0019802616
0.11208669 -0.86929643 -0.8976232 -0.081124306 0.18204583 -0.046500683 -0.9629502 0.09586496
-0.484699 0.6291497 0.013256509 0.031769104 -0.057097197 -0.51513875 0.28059947 -0.83469975
-0.2894745 -0.5921047 0.45837983 -0.84795463 -0.6004964 0.19840209 0.037535243 -0.91095984
-0.03419602 0.57391816 -0.8446394 -0.047631145 0.00010464775 -0.5614643 0.09255006 0.019513987
-0.16718817 -0.30935872 -0.22430837 -0.14477253 -0.49217892 -0.40010154 -0.153849 0.073405884
-0.40552568 -0.55447876 0.25123456 0.29978517 0.34768012 0.18739717 -0.76167977 0.14313228
-0.4759556 -0.33605766 -0.54175353 -0.7698865 -0.05803132 -0.6689341 -0.10800266 -0.69301987
0.42179024 0.40666977 0.07076627 0.29361746 -0.35935676 -0.32506406 -0.84355175 0.0032302663
-0.50409627 -0.754462 -0.70710313 -0.8960943 -0.99671066 0.76271415 0.16209598 -0.46084595
0.49654406 -0.8117831 -0.97965336 -0.59618676 0.3970448 -0.16018426 0.1819023 -0.447847
0.46449038 -0.1453296 0.36315343 -0.34958136 0.24790178 -0.18940818 0.37188375 0.36974618
0.08661268 -0.7180052 0.7690239 -0.87093854 -0.12263954 -0.8084247 -0.47235477 0.46658948
-0.90171695 -0.8047509 -0.109629154 0.77951056 0.5876691 -0.41160417 0.5500294 -0.73342645
0.59597206 -0.5389594 -0.28592396 -0.105274916 0.37968317 0.1578189 -0.08410573 -0.97790754
0.76581436 0.29455632 0.4996269 -0.079411626 -0.88819075 -0.6248884 0.39599803 0.6744458
0.62010187 -0.35605454 0.2890748 0.13839595 -0.92182755 0.34168 0.07687519 -0.76084805
-0.64738405 -0.86589587 0.10262379 0.12641814 -0.0071407794 -0.075826526 0.15322432 -0.49038124
-0.20546436 0.27216074 -0.35667872 -0.40255296 0.15322788 0.1522031 -0.86417365 0.17011164
-0.8882365 -0.30923128 0.43065968 -0.37988913 -0.6047492 -0.16380727 0.5105606 0.057721805
-0.84692264 -0.7836305 0.34487188 -0.9364604 0.16977142 0.015114207 -0.37916827 -0.421808
0.43236667 -0.87838924 -0.63366055 0.8259425 -0.697528 -0.76946294 -0.080580235 0.7596399
0.6266593 -0.3767718 0.79515857 0.15189278 0.15376765 -0.08668876 0.5840008 0.15639637
-0.24247146 -0.27064693 0.008037326 -0.28875196 -0.41440618 0.31785738 0.049597193 0.23409517
-0.18345368 -0.050532818 0.016224688 -0.8933164 0.23159464 0.082820244 -0.67343974 0.17757496
0.04948845 -0.9768387 0.28430685 0.63260794 0.38493386 0.1533215 -0.6431128 -0.49813783
0.08508246 0.22216965 -0.04481864 -0.88708806 -0.8061694 -0.27134252 0.23605506 0.12867856
0.18974891 0.039577715 0.27495942 -0.83549416 0.11622811 0.053534493 -0.5210551 -0.7684604
-0.14543366 0.07363964 0.43045783 -0.31795192 -0.7838354 -0.91011655 0.6497389 -0.4425373
0.031449087 -0.9850298 0.79016006 0.11322957 -0.60501575 -0.22601664 -0.90554726 0.47781637
-0.06714988 0.08219677 -0.15478325 0.54842925 -0.049211383 -0.60947776 0.13249457 0.5321024
0.4666038 0.44262856 -0.81227744 0.13306609 -0.12745321 0.055290375 -0.78398705 0.37236917

linear1.bias f4 [400]
00000000: 984e dcbe 24a0 663c 8322 efbc 113d 353d
00000010: 8617 e5be 6c6b 56be 989a 25bd c389 eebc
00000020: fb35 00be b070 bd3b 1836 4a3c c0a0 5a3a
00000030: 7c88 5abe da79 bc3c 343e 7f3c 8f47 fcbd
00000040: 1064 3cbd 0488 22be 9514 98bc 0496 d9bd
00000050: a0f1 b53a 884e 163c 4aee 94be 514b 073d
00000060: e36c 2f3d 73a5 99bc c745 f1be 28f5 833b
00000070: 98c4 dd3b 3010 7bbe e8f6 92bd 364e 10bd
00000080: 28f8 c43b c739 c4be 9880 43bd b0f3 59bb
00000090: 3ffb 8cbc 30c2 ca3b afab f7bd d0f6 2bbd
000000a0: 49a1 383d 38ec 61bc 3392 353d 6045 993a
000000b0: 83a9 33bd e628 f13c 17c9 063d 85d9 b7bd
000000c0: a3b1 cbbc 3971 343d e716 86be edfe a7be
000000d0: b078 11be 2676 4ebe 45d2 36bd 6e5c 13be
000000e0: acf9 06bc 3664 943c 90e9 9e3b 2815 1fbc
000000f0: 8029 8c3b 9eca cc3c e7f3 f1bc 01ed 0b3d
00000100: 09ad 68be 35e7 68be 247f a2bd 85e9 2fbe
00000110: 92e5 34bd 645c 06bd 15df 2fbd 57ec 50bc
00000120: 14ed 403c adae 23bd 5bba 103d 6754 353d
00000130: 5819 0b3c fd82 60be e241 58be 90e5 a7bc
00000140: 3c24 97bc 9d74 33bd eeaf 8d3c 3a48 db3c
00000150: 5073 5ebe a0fc b03a 7be3 4abe 80ec c83b
00000160: ff7c 5ebe fcb8 8dbc 67dd b6bd abab 2a3d
00000170: 0dac 703d 0082 5abc cc48 ccbd 813f c2be
00000180: 9dd9 f4bd 179e fabc 4157 1abe f6c0 b93c
00000190: 138c ffbc 4da3 2f3d 2bc5 39bd bcc0 87be
000001a0: ca3e dbbc c0a6 f2bb fae5 23bd e0dc 06be
000001b0: 3148 89bd 7569 3a3d cd23 a2be 88f3 66bc
000001c0: 652e 8ebe c084 3ebd 2ce0 2dbc 9e5c ae3c
000001d0: 9b82 c7be 3dcc 6cbe 73d3 c8bc ebd4 483d
000001e0: 35f8 83be 9241 99be eb79 02bf c091 c23a
000001f0: 2c48 3cbc eb24 2abd 5b4a ddbe 491f 083d
00000200: 1a47 b0bd d1e2 4a3d b9bb 9dbe 8961 29be
00000210: 406b 2d3c 3028 b7be 9c0d a6bd 683e 2cbc
00000220: 9405 5c3c c919 1f3d f288 efbd 5a31 06be
00000230: cbdf 0bbc 30cc 7fbb 5a36 2cbe 068b 12bd
00000240: a0a2 85ba c59f 8fbe d8e2 043c 922c 46bd
00000250: f921 25be 71a9 25be c0e0 753a e5be 36be
00000260: 067d 963c c8df 29bc 329e 22be fd7a f2bc
00000270: a7a0 3f3d 80cb 24ba 28fc 0cbe abcc cabd
00000280: 0cea 693c 6041 b03a 508d b7be cf07 063d
00000290: 680b 60be 77c1 0ebd 5467 553c b6ad 27bd
000002a0: 53ca 01be ea9c 843c 4bdf 14bd 7ba6 8cbd
000002b0: e88b 88bb 388d 72bc fa58 3fbd e253 0fbe
000002c0: f0b8 d1bd 9e0a 27bd aef9 dfbd 2071 1ebe
000002d0: 3b6e 47be f78e 393d cd93 20be 2564 33be
000002e0: 8d28 05bd 105c ecbc 6d51 9ebc 1006 9dbb
000002f0: 49a9 3b3d 1a0e b2bd 6834 a5bd 3004 84be
00000300: 0e83 a03c f533 1bbd 26b7 36bd e29f ab3c
00000310: a669 96be 68c9 c9bd 585f c53b c178 52be
00000320: 16a3 95bd e444 753c c8f9 9fbe 79cb acbe
00000330: 7582 ccbe b9ae 25be 4ab3 94bc 9489 763c
00000340: 28c2 c0bd fd26 6abe e2a4 c23c 044c 563c
00000350: f22d 843c 0ed4 a83c ca3a 7ebe a9e2 b23d
00000360: b054 6abe 8451 2fbd c986 93be 98b3 b23b
00000370: 87f8 05be 34e1 78bd 7703 263d bc22 91bc
00000380: 0dfd 19bd da09 afbd ee44 77bd ace6 87bc
00000390: 1bc6 42bd 80e1 423b d1cb 8fbe 8f10 33bd
000003a0: 81e5 01bd 0acb 3cbd f665 ebbd fae0 fdbd
000003b0: 3192 493d 9847 053c 1701 c9bc 7fa1 41be
000003c0: 3dfe febc 0155 c8bd b735 e2bc ba94 6bbc
000003d0: be1a 10bd d75c 45bd 9f76 15be 03ee b4bd
000003e0: 0da0 49be 7c55 a4be 13bb 033d 4680 0fbe
000003f0: a0da 233b a5c5 bebd a22c 873c dd55 afbe
-0.43028712 0.014076266 -0.029191261 0.04424769 -0.4474451 -0.20939416 -0.040430635 -0.029118424
-0.12520592 0.0057812557 0.0123419985 0.00083399937 -0.21341127 0.023007322 0.015578795 -0.12318336
-0.045993865 -0.15872198 -0.018564502 -0.10624316 0.0013881214 0.009173997 -0.2908805 0.03303081
0.04282845 -0.01875565 -0.47123548 0.0040270276 0.0067678206 -0.24517894 -0.07176 -0.035230838
0.006011028 -0.3832533 -0.04773006 -0.0033256821 -0.017209647 0.0061876997 -0.12093293 -0.041983426
0.04507569 -0.013789229 0.04432888 0.0011693649 -0.04386283 0.029438447 0.032906618 -0.089770354
-0.024864977 0.04405329 -0.26189348 -0.3281168 -0.14206195 -0.20162258 -0.044634122 -0.14390728
-0.008238237 0.01811419 0.00484962 -0.009709634 0.004277408 0.02499896 -0.029535247 0.03416157
-0.22722258 -0.22744448 -0.079344064 -0.17178924 -0.044164248 -0.032802954 -0.042937357 -0.01275166
0.011775274 -0.039961506 0.035333972 0.044269945 0.008489929 -0.21924968 -0.21118882 -0.020495206
-0.018449895 -0.043812383 0.017295804 0.026767839 -0.21723676 0.0013503022 -0.1981334 0.0061317086
-0.2172737 -0.017300121 -0.08928948 0.04166762 0.05875783 -0.0133366585 -0.099748224 -0.37939075
-0.11955569 -0.030592961 -0.15072347 0.022675019 -0.031194722 0.042880345 -0.04535405 -0.26514232
-0.026763339 -0.007405132 -0.040014245 -0.13170195 -0.067032225 0.045510728 -0.3166794 -0.014096148
-0.2776977 -0.04651332 -0.010612529 0.021284398 -0.38966832 -0.23124786 -0.02451489 0.04903118
-0.25775304 -0.2993284 -0.5096728 0.0014844462 -0.0114918165 -0.041539114 -0.4322079 0.03323296
-0.086073115 0.049532715 -0.30807284 -0.16541113 0.010584652 -0.35772848 -0.081080645 -0.010512926
0.013429064 0.03884295 -0.11696042 -0.13104764 -0.008537243 -0.0039031617 -0.16817608 -0.035777114
-0.0010195561 -0.28051582 0.008110724 -0.04838235 -0.16126241 -0.16177918 0.00093794987 -0.17846258
0.018370163 -0.010368295 -0.15880659 -0.029599661 0.04678407 -0.00062864274 -0.13768065 -0.099023186
0.0142769925 0.0013447218 -0.3585 0.03272229 -0.21879351 -0.03485247 0.013025124 -0.040937148
-0.12674837 0.016188104 -0.03634576 -0.06867691 -0.0041670687 -0.014804177 -0.046715714 -0.13996843
-0.10240352 -0.04078161 -0.109362945 -0.15472841 -0.19475643 0.045302358 -0.15681382 -0.17518671
-0.032509375 -0.028852493 -0.019325936 -0.0047919825 0.04581574 -0.08694096 -0.08066636 -0.25784445
0.019593742 -0.037891347 -0.044608258 0.020950262 -0.29377478 -0.09852868 0.0060233288 -0.20553876
-0.07306497 0.014970038 -0.31245255 -0.33748987 -0.3994328 -0.16179933 -0.018151898 0.01504745
-0.09412032 -0.22866435 0.023760263 0.013079647 0.01613519 0.020608928 -0.24827114 0.08734638
-0.22883868 -0.04280235 -0.2881377 0.005453538 -0.13083087 -0.060761645 0.040530648 -0.017716758
-0.037594844 -0.08546801 -0.06036847 -0.016589485 -0.04755221 0.002973646 -0.28085187 -0.043716963
-0.031713013 -0.04609207 -0.11494057 -0.123964265 0.049211685 0.008134745 -0.024536652 -0.18909262
-0.03112709 -0.09781838 -0.027613504 -0.014378721 -0.035181753 -0.048184242 -0.14596032 -0.0883446
-0.19689961 -0.3209647 0.03216083 -0.14013776 0.0025002137 -0.093150415 0.016500775 -0.34245196

linear2.weight f4 [300, 400]
00000000: 76fc ab3c 287d a43b 7dec 1f3d dc3a 88bc
00000010: aa78 e93c 9d8a a0bc fec7 8e3c e86f 6ebc
00000020: 7a15 17bd 9659 e13c 5f46 45bd 26ba e43c
00000030: 9689 c33c 7480 0b3c 7436 24bc a7f4 183d
00000040: 0347 42bd c75c 073d ad1d c2bc 8e0e 28bd
00000050: 2303 eebc 4ed6 d03c 3678 fb3c 5833 7dbc
00000060: 7ab8 e93c addc 1abd df6f 4cbd 9a55 22bd
00000070: 05fe 1f3d 6d52 02bd 408c f33b 8039 653b
00000080: f0fc ffbb 2a81 c6bc e415 5e3c 2851 cfbb
00000090: 1009 8e3b cbe1 013d 90a2 c9bc 4850 3dbd
000000a0: 1417 343c 5282 da3c 88be 2ebd caf4 da3c
000000b0: 6891 22bd 9b32 2c3d 0ed6 bb3c 2de7 20bd
000000c0: 7afa debc 00a5 0239 4eb6 b43c 733f 243d
000000d0: f47e 5e3c 9091 9fbb e98a 023d 0091 fe3b
000000e0: 9a00 ef3c c0c4 b1ba f047 a4bb 682f 48bc
000000f0: 98ed adbb 8896 03bc ddf1 d4bc e55d 1bbd
00000100: d050 2bbb ddc6 ddbc 494f 023d 7077 84bb
00000110: 90bf 19bd 5c1c 7d3c 9eb9 01bd 7f59 2e3d
00000120: b047 b0bb 9aee 963c 28d8 60bc 03ea 1abd
00000130: 60a5 a0bc a359 debc c1ec 133d 859c 403d
00000140: 0c45 293c 2aec 2abd a096 12bc d8d2 00bc
00000150: 25cf 07bd 6a82 aa3c 5937 243d 8389 2f3d
00000160: 479e c1bc 4030 4c3c da6c 2cbd 23da bfbc
00000170: 8dfc 00bd 9d9b 193d 0124 3c3d 801a 24bb
00000180: 0092 e23b 0216 823c 6959 0f3d 0273 9e3c
00000190: a470 613c 2911 273d a059 423b e015 683b
000001a0: 961d c33c b64c f23c d6a0 d13c c012 893b
000001b0: 3083 33bb 2896 f23b 37e5 a0bc 1e17 953c
000001c0: a0d2 35bb fa57 973c 4046 84bc 4ccf 673c
000001d0: eab7 bebc 2d91 e6bc 3139 1a3d 5da8 383d
000001e0: 00fa f4bc ac3c 4dbc fc34 01bd 8ce1 233c
000001f0: 3d37 b4bc a8f3 ef3b 4e69 d63c 4efa f13c
00000200: b74a ecbc edf9 f9bc 51e7 063d 7a7e 0dbd
00000210: cf90 2ebd e36a 383d 8a84 97bc c33c 48bd
00000220: e719 bfbc b00a d5bb 82a3 16bd 23c1 3b3d
00000230: d4e3 73bc 37cb 353d 0001 e9bc 7d0a 1a3d
00000240: 1bbf 333d d799 e7bc 802e a9bb 15f1 2fbd
00000250: 581d 173c 7351 3bbd 725b c13c 58f2 303c
00000260: fbed 12bd 60e6 743b ddeb 4bbd ec83 8ebc
00000270: 7376 1fbd 54d3 04bd cdf0 fdbc 6a60 cbbc
00000280: 282b 45bd 18a7 7fbc 4043 92ba c097 06bc
00000290: 7d3a 0c3d 0a15 40bd 7f7a 2a3d 3b64 42bd
000002a0: 42f1 43bd b017 43bb b239 ef3c aa84 9d3c
000002b0: 720d a33c 7c66 4f3c 5781 303d a599 48bd
000002c0: ed44 3abd 39c3 183d ce5b fc3c d23d 993c
000002d0: 5db2 02bd 63bf 36bd 516c 0b3d ac99 153c
000002e0: 2b5f 2ebd 95e2 2b3d 1d56 e1bc 786a 08bc
000002f0: 9a07 2bbd 1652 d33c a81f 3fbc b126 373d
00000300: 79a9 123d 60a9 48bc ce08 af3c 734d 1e3d
00000310: 5ef9 ad3c c829 76bc 147d 80bc a8a4 b43b
00000320: 7017 823b 5cf6 7e3c 4f45 37bd 8b20 0f3d
00000330: 8ad2 d73c b6f8 bb3c 6833 6cbc 5d91 303d
00000340: 605c 2a3c b297 ec3c d638 07bd 2802 53bc
00000350: dbb5 42bd 8039 5ebc 0979 493d 54a0 043c
00000360: 47ca a0bc 98e6 0a3c 18db d83b 0e5a 15bd
00000370: 2172 1f3d 4e09 ba3c dad0 d43c 7007 f5bc
00000380: 3693 b53c eadc 89bc 90b4 f3bc ec23 45bc
00000390: 60b0 faba 1847 903b 1440 123c acb9 79bc
000003a0: 8354 2dbd dae6 2abd 63ff 333d ec16 693c
000003b0: d3c5 443d e921 423d 0019 ae39 9d10 fdbc
000003c0: 5693 15bd 61d5 383d 282d 37bc c0ca 02ba
000003d0: d078 3e3b e2fe f43c 2016 e6bc e1cf 0f3d
000003e0: 08cd 423c b76c f1bc d851 943b 823f 1dbd
000003f0: dad2 24bd a233 e63c 80d7 1fbc c0ff d8bc
0.020994406 0.0050198026 0.039043892 -0.016629629 0.02849992 -0.019597346 0.017429348 -0.014553048
-0.036885716 0.027508538 -0.048162814 0.027920794 0.023869317 0.008514512 -0.010022748 0.037342694
-0.047431003 0.033047464 -0.023695791 -0.041029505 -0.02905423 0.025492813 0.03069697 -0.015454136
0.028530348 -0.03780811 -0.049911376 -0.039632417 0.03906061 -0.03181689 0.0074324906 0.00349769
-0.007812135 -0.024231512 0.013555024 -0.0063268133 0.0043345764 0.031709474 -0.024613649 -0.04621914
0.01099183 0.02667347 -0.042662174 0.026728053 -0.03968945 0.04204045 0.022929218 -0.039282966
-0.027219046 0.00012459233 0.022059586 0.040099572 0.013580073 -0.0048696473 0.031870756 0.00776875
0.029175092 -0.0013562664 -0.0050134584 -0.012218334 -0.0053078644 -0.008031495 -0.025994236 -0.03793134
-0.0026140697 -0.027072364 0.031813893 -0.0040425584 -0.037536204 0.015448656 -0.03167116 0.04256582
-0.0053796396 0.018424321 -0.013723411 -0.037820827 -0.019610107 -0.027142351 0.036114458 0.04702427
0.010331403 -0.04172913 -0.008947045 -0.007862769 -0.033156533 0.02081414 0.040091846 0.04285575
-0.023635043 0.012462676 -0.042095996 -0.023419445 -0.03149085 0.03750192 0.045932774 -0.002504021
0.006914377 0.015879635 0.034997378 0.01934195 0.013759766 0.04078785 0.0029655471 0.003541343
0.023817819 0.029577594 0.025589388 0.0041831434 -0.0027391426 0.007403154 -0.019640548 0.0181995
-0.002774395 0.018474568 -0.016146779 0.0141485445 -0.023281056 -0.028145397 0.0376522 0.04508244
-0.029904366 -0.012526672 -0.03154467 0.010002505 -0.021998996 0.0073227473 0.02617326 0.0295383
-0.02884422 -0.030514682 0.032935444 -0.034544446 -0.04261857 0.04502381 -0.018495817 -0.048886072
-0.02332778 -0.006501518 -0.036777027 0.045838486 -0.014885861 0.044383254 -0.02844286 0.03760766
0.043883424 -0.028271599 -0.005163014 -0.042954523 0.009223305 -0.045731973 0.023603175 0.010799967
-0.035871487 0.003736876 -0.049785484 -0.01739689 -0.03893132 -0.0324281 -0.030998612 -0.024826247
-0.04813686 -0.015603803 -0.0011158958 -0.008214891 0.034235466 -0.046895064 0.041620728 -0.04745887
-0.047837503 -0.0029768758 0.029202316 0.019228298 0.019903872 0.0126587115 0.043092098 -0.04897465
-0.04547589 0.037295554 0.030805495 0.018706236 -0.03190838 -0.044616114 0.034038845 0.0091308765
-0.042571228 0.041964132 -0.027506882 -0.008326165 -0.041755296 0.025795978 -0.011665262 0.044714633
0.035806153 -0.012247413 0.021366503 0.03864808 0.021237072 -0.01502461 -0.015684642 0.0055127926
0.003970079 0.015561666 -0.044743832 0.034943145 0.02634551 0.022945743 -0.014416553 0.04310738
0.0103980005 0.028880928 -0.033013187 -0.012878932 -0.047536712 -0.013563514 0.049187694 0.008094866
-0.019627703 0.008477829 0.006617915 -0.036462836 0.0389272 0.022709515 0.025978494 -0.029910773
0.022164922 -0.016828973 -0.029749185 -0.01203249 -0.001912605 0.0044030063 0.00892641 -0.0152420215
-0.042316925 -0.041724063 0.043944728 0.014226656 0.048040222 0.04739562 0.00033206493 -0.03089171
-0.036517464 0.04512537 -0.0111802 -0.00049893185 0.002906371 0.029906694 -0.028086722 0.03511036
0.011889704 -0.029470785 0.004526358 -0.038390644 -0.040240146 0.028100792 -0.009755969 -0.026489139

linear2.bias f4 [300]
00000000: d099 8a3b cfad 38bb fde7 583c 10f0 3dbd
00000010: a60b 26bd c6da 8abc 90be 303d 94cf d8bc
00000020: 600f b73c 408d 873c ab95 b03b 1e24 b33c
00000030: 6c90 06bc 3515 0f3c 28e2 ddbb 93df a5bc
00000040: 3f33 13bd 6bb3 df3c 7007 b03b 5634 9abd
00000050: 2942 50bd 9f3e 5e3c 59fa 923c 5943 e7bc
00000060: 7273 223e 522c c5bb 76cc 42bc 7191 edbc
00000070: 4dfd 27bc 2923 65bd 2890 babc 38f9 8abd
00000080: ad44 0abd cb07 b5bb ffbf cbbb a81e 89bb
00000090: 6ad1 443c 8144 debc 053a 5e3b 2d5d 36bd
000000a0: 404b 3f3d d28d 153e 9869 3c3c 6f73 48bd
000000b0: b64e 57bc 815c 393d 7eaa 53bd 278b 5dbd
000000c0: ee9e 69bd 1600 4c3b 8e79 023d 894a d33c
000000d0: 50f8 4fbd 7da2 87bc 8c87 23bd e1a7 78bc
000000e0: 0057 ecbc f50e 1fbc 6400 94bd 9088 7e3b
000000f0: 8e72 68bd ae1e 4b3b 03e9 66bd 36a8 8ebc
00000100: 6ba1 5dbc a9b4 6bbb f8d6 94bc 48a1 c1bc
00000110: b034 48bc 1c45 3f3c b69a 003d c7f9 893b
00000120: a562 34bd 0296 123d ce0d 56bd dc9c 29bd
00000130: e8d5 46bd 463a 8dbb 0915 783e 72ec daba
00000140: 1a5f 493c 4463 193c 685a cabc 3262 96bc
00000150: a54f 483b 809d 353c 76c9 a53d c4e3 4e3d
00000160: 89c1 313d 187e 64bd 8357 bbbc b417 70bd
00000170: c6e7 ffbc e0d6 923a ca39 d2bc ce51 3fbd
00000180: 2c26 833c 4047 c6ba 83c6 37bc 1ca7 f03c
00000190: c0a8 203d fb98 19bd 6077 e1bb 3568 75bd
000001a0: e079 c93c 99b9 62bd 40d0 4c3d 5402 393d
000001b0: 9f9f 01bd 3b84 53bd 89ea ce3b 856d 05bd
000001c0: 2883 01bd 1f93 32bd f807 763d db5f 91bd
000001d0: b98e d23d 1902 53bd 7021 503d 9919 2ebb
000001e0: f4d8 68bd 7a68 2b3d 0c45 f73c 923e 92bd
000001f0: c219 95bc 756c 413a 553b c83c cfdc ce3c
00000200: d266 40bd 09c0 42bd dfae 113d e819 433d
00000210: c90a d5bc ba19 33bc 1098 013c 86a4 2bbc
00000220: d1fd 5cbd 23d9 1f3e f1de a73e 8fb9 23bd
00000230: 2880 703c 22a5 383b e1d2 a2bb 2366 50bc
00000240: 4ffa 2e3d 544f bb3c ce4f 313d ccac 51bc
00000250: 9ad2 033d ef0c 54bd 70c6 e23c 254a 4ebd
00000260: c8a9 b9bc 4ba0 40bd fc60 463c b03a d7bc
00000270: ae4c 70bd 0124 293c c304 303d 660e 143d
00000280: d20c db3c 8ce7 5bbd 5972 b53c f53f e93c
00000290: ca9e 20bd 065c c4bc 65c8 acbc 72b6 803e
000002a0: 8eb9 a7bc a867 94bb 1d9c 7abd 2a81 21bd
000002b0: 8462 ffbc 4ef9 4cbd c01d e43c c841 4abd
000002c0: ed97 81bd c0e2 c0bc 3f61 debc 7175 51bd
000002d0: 81e5 003d a6c5 ebbc 8235 713b 7bca 08bc
000002e0: b212 49bc 0e1b 4cbd d22a 06bd 1e07 d2bc
000002f0: 48b1 523e 1e41 ef3d 5499 37bc 0007 063c
00000300: 0a07 cb3c 4032 363c 0c6b 3bbc 2185 90bd
00000310: 9990 043e 74bb 413c 16fc 0b3d 746f 0abc
00000320: ce84 8cbd dc9d 6b3d 22b0 773c 31c7 1f3e
00000330: f80d 623d c8ba 423d ae45 5c3d 0a34 85bc
00000340: dffa b73c 5a9e c93c 16bd 2dbd 285b 66bd
00000350: d569 003d a3ea 85bc 5c8c df3c 9d2c e43d
00000360: 49c2 1abc 4a39 68bd 00ce d5bc fa22 aebc
00000370: 265d 68bd 6522 70bc 30d7 273b 4ae0 69bd
00000380: 242c cf3e 400d a93b 59b0 323d a05c 7e3c
00000390: c664 92bd 2e20 85bc 3ef0 8bbc c02d 7a3a
000003a0: a573 55bc 103f 243d 457a 6fbd 02a9 803c
000003b0: 55a0 44bd a17e fdbc 68b1 0ebd 6a45 323d
000003c0: c8bc 27bd 1f93 87bd dbbb 6ebd 024c 91bc
000003d0: 90f6 073d 3860 e9bc e271 1ebd 5612 edbc
000003e0: 615a 83bd 5c72 91bc 2084 073c bfd5 35bd
000003f0: 488c 453d dd4a 48bd 7f5e 39bd 3e3e 73bd
0.0042297617 -0.002817977 0.013238904 -0.04637152 -0.040538453 -0.016950022 0.043150485 -0.026466168
0.022346199 0.016546845 0.0053889356 0.021867808 -0.008213144 0.0087330835 -0.0067713447 -0.02024821
-0.035937544 0.027307233 0.0053719804 -0.075295135 -0.050844345 0.013564735 0.01794164 -0.028230356
0.15864351 -0.0060172463 -0.011889568 -0.029000016 -0.010253263 -0.055941734 -0.022773817 -0.06785816
-0.0337569 -0.0055246106 -0.006217956 -0.0041845627 0.012012819 -0.027132275 0.0033909094 -0.044522453
0.046702623 0.14604881 0.011499785 -0.04893821 -0.013141325 0.045254234 -0.051676266 -0.054087784
-0.057036333 0.003112798 0.031854205 0.025792377 -0.05077392 -0.016556973 -0.03992419 -0.015176744
-0.028850079 -0.009708156 -0.07226637 0.0038838722 -0.056749873 0.0030993628 -0.05637456 -0.017414194
-0.013527255 -0.0035965836 -0.018168911 -0.023636475 -0.012219593 0.011674192 0.031397544 0.004210684
-0.044039387 0.03578759 -0.05225926 -0.04140936 -0.04854384 -0.0043099253 0.24226774 -0.0016702546
0.01229074 0.009362046 -0.024701312 -0.01835737 0.003056505 0.011084914 0.08095066 0.050510183
0.04339746 -0.055784315 -0.022868877 -0.058616355 -0.031238448 0.0011202954 -0.025662322 -0.046708874
0.016009413 -0.0015127435 -0.0112167625 0.029376559 0.039223433 -0.03749941 -0.0068806857 -0.059913833
0.024594247 -0.05535278 0.05000329 0.045168236 -0.031646367 -0.051639777 0.00631458 -0.03257515
-0.03161922 -0.043597337 0.060066193 -0.07098361 0.102811284 -0.051515672 0.05081314 -0.002656555
-0.056847528 0.041847683 0.030184291 -0.071408406 -0.018200759 0.0007378527 0.024442354 0.025251774
-0.046973057 -0.04754642 0.03556716 0.047632128 -0.02600612 -0.010931427 0.00790979 -0.010476237
-0.053952996 0.15610175 0.32787278 -0.039971884 0.014678992 0.0028174599 -0.0049689864 -0.012719664
0.04271918 0.022864975 0.043289 -0.012797546 0.032183267 -0.051770147 0.027682513 -0.05036368
-0.022663966 -0.047027867 0.012108084 -0.026273102 -0.058666877 0.010323525 0.04297329 0.036146544
0.026739512 -0.053687617 0.022149252 0.02847288 -0.039213933 -0.023969661 -0.02109165 0.25139195
-0.020474222 -0.0045289584 -0.061184037 -0.03942982 -0.031174906 -0.050042443 0.027846217 -0.04937914
-0.06327806 -0.023545623 -0.02714598 -0.05113739 0.031468872 -0.02878077 0.0036805575 -0.008349056
-0.012272524 -0.04983049 -0.03275568 -0.02563816 0.2057544 0.11682342 -0.01120599 0.00818038
0.02478363 0.011120379 -0.011439096 -0.07056642 0.12945785 0.011824477 0.034175955 -0.008449424
-0.06861268 0.057523593 0.015117677 0.15603329 0.055189103 0.04754141 0.05377739 -0.016260166
0.022458492 0.02461164 -0.042416655 -0.056239277 0.03135093 -0.016347235 0.027288608 0.11141322
-0.009445735 -0.05669526 -0.026099205 -0.021256912 -0.05672946 -0.014656638 0.002561044 -0.057098664
0.40463364 0.00515905 0.04362521 0.015525013 -0.07148127 -0.016250696 -0.01708233 0.00095435604
-0.01302806 0.040099204 -0.058466215 0.01570559 -0.048004467 -0.03094417 -0.034837157 0.04352323
-0.04095152 -0.06619858 -0.05828462 -0.017736439 0.033194125 -0.028488263 -0.038682826 -0.028939407
-0.06413723 -0.017754726 0.008271247 -0.044393297 0.048229486 -0.04889952 -0.045256134 -0.05938553

linear3.weight f4 [60, 300]
00000000: 0aae 243b d8dc ebb9 69e6 67bc 8019 8b38
00000010: 6009 b339 367a 0f3b 0ca6 09bd b176 f6ba
00000020: 7422 9f3a bd5d e0ba 93f4 19bd 4990 cdba
00000030: bab7 373e 6449 1ebb 3c9f 313a 07ca 073d
00000040: 9403 aebc 44f5 fbbc 0729 a8ba 8ff6 7cbd
00000050: 7920 e3bc 3de9 f6bc 4f7c e53d c8a8 b6bc
00000060: b789 643d 0ced d3bc d71e c3bc 9934 6dbd
00000070: f21b a9bc f069 99bb 048c 043a 79f5 ffbc
00000080: 6538 57bd 227d c7bc b9db 80bb c8f2 253b
00000090: c2b7 f9bc ec18 e0bc d33e 02bd ac88 343b
000000a0: a9dd 36bb c3c4 03bd 6aec 153b 98b5 3b3b
000000b0: 682d e7bc 8656 94be e88e 893c 2c7f a3ba
000000c0: 5879 13bd 6158 bdbc d010 ce3a ab03 be3c
000000d0: 8358 32bd 9ac9 c5bc a073 fc3a a0b8 04bd
000000e0: 9020 58ba a702 ddbc 9ef9 afbc b8e5 963a
000000f0: 81b4 d8ba 30c4 e93a 906e 87bd 69ac 31bd
00000100: 4d3f 0dbd 21fd b7bc 6086 223a 7e81 ccbc
00000110: 6da3 38bb 5695 d4bc 0815 e73a 2e87 09bd
00000120: da11 cabc 735a 3cbd e485 2cbd fcbf 473a
00000130: c026 73bd d1d5 b9bc 8990 d9bd a5d2 c8bc
00000140: a7cd b0bc fc88 abbc 8f73 cabc 40f7 c1bc
00000150: 7819 10bd e015 503a 72fc 41be a363 ae3d
00000160: a92b 04bd 4dbd eebc 3894 88bd 8ebf 13bd
00000170: b4b8 c13a 9cc8 33ba ebc9 30bb ef71 07bb
00000180: 4f9a d4bc 1638 94ba 57f0 5d3a 8d70 27bb
00000190: 9a5f c5bc 0c62 ed3a afcf c3ba e024 ef3a
000001a0: 949b afba 6066 1d39 53ff 2fbb a28e 3c3b
000001b0: 6522 143e 60ff 5aba 8bfb 2dbd 059c 89bb
000001c0: 8802 c53a 8d88 c7bc 72b5 343e 9a02 4fbd
000001d0: 91c7 b03d 4ca9 163a b874 a83a e213 acbc
000001e0: 5821 29ba f9d1 2fbb df22 c2bc 127b c3bc
000001f0: acd5 d2bc a244 c9bc 7d11 7fbd f0e5 db3c
00000200: 8017 f137 c773 d7bc 82c0 1fbd 202d a4b8
00000210: d088 a1bd 0298 cdbc 1af0 8fba 17d8 fbbc
00000220: 5424 063b 307e 38be bc49 93be bf23 d6bc
00000230: 0922 d7ba e7ba bdbc 5bf3 a3bc 56a1 d4bc
00000240: 0192 1abd 18e6 383b 640c 1cba c436 1e3a
00000250: d00c 42ba 29a1 11bd 04db 15ba fa47 c1bc
00000260: d432 bd3c 48a1 3b3a 4bf4 dfbd 60c3 763a
00000270: 2930 c7bc 0b88 d7bc c55d b0bb fd29 c9ba
00000280: f380 dabc d767 933d cf3e d0bc 9b5c a33c
00000290: 5ed2 d2bc 784d 903a 3d6c 7bbb aa41 38be
000002a0: a893 bdbc 8660 333b 1e7e 1abc b410 3b3b
000002b0: 8a08 f0bc 043a d0ba 3239 26bb e8aa 12bb
000002c0: 68a1 883a c862 e33a c0c1 88ba 0299 22bd
000002d0: bf3c 63bc 439f 72bd 0476 38bd 12d4 c8bc
000002e0: bc82 bcbc fc7a c73a 6055 dfb9 380a d3b9
000002f0: c51a 97bd 5518 25be 1884 11bb 530c d1bc
00000300: 28ca dbba e07b 083a f9fc 04bb 20c7 0e39
00000310: d4a8 d53d ecd4 42bd 40b1 bc38 d9e1 ccbc
00000320: 5786 31bd 94ff 313b dc3a a93a b3e7 76bc
00000330: 8076 9538 90eb 31bb 0846 8f3a 8e94 d0bc
00000340: 0e92 17bd ffd7 d5bc ea17 7bbd 404c 5738
00000350: 2c84 3cbd 4a30 c0bc 1852 7aba 606f 8f3d
00000360: e818 aebc 5280 d5bc be94 a83c aa2b a3ba
00000370: 804b 36b8 4920 c0bc 0241 1c3b 1caf 3fbe
00000380: a882 40bd 81e3 c1bc e166 c4bc 00f4 0cb7
00000390: 3ada d5bc 58cd af3a 2708 42bc 208d 96b8
000003a0: 49d7 e0bb 7ce3 e1ba 78df f2bc f51e 9b3c
000003b0: 04dd 49ba 2737 1abd 783a ddbb 9cdc 0bbb
000003c0: b09a c3bc cbbe c7bc a4e5 44bd 3161 51bb
000003d0: 9637 d4bc 02c3 d2bc bc7d 56be 409a 5fba
000003e0: 78fe 613a 2073 c4bc abc2 95ba 7a3e 383b
000003f0: 7e40 3c3b 1bea 83bc 6e23 263b abfb 0bbd
0.002512815 -0.00044987234 -0.014154055 6.632786e-05 0.00034148525 0.0021892912 -0.03360562 -0.0018803683
0.0012141005 -0.001711778 -0.03758676 -0.0015683259 0.1794118 -0.002415263 0.0006775742 0.033151653
-0.02124194 -0.0307566 -0.001282961 -0.061758574 -0.027725445 -0.030140514 0.112053506 -0.022297278
0.055795398 -0.025869869 -0.023818417 -0.05791149 -0.020643208 -0.004681818 0.00050562643 -0.03124498
-0.052544016 -0.02435166 -0.003932443 0.002532171 -0.03048313 -0.027355634 -0.031798195 0.0027547283
-0.0027903116 -0.03217007 0.002287651 0.0028642174 -0.028219894 -0.28972262 0.016791776 -0.0012473813
-0.036004394 -0.023113431 0.0015721563 0.023195108 -0.043541443 -0.024143983 0.0019260533 -0.032402635
-0.0008244598 -0.026978804 -0.021481331 0.0011512553 -0.0016533287 0.0017834958 -0.06612885 -0.043377314
-0.034484196 -0.022459568 0.0006199833 -0.02496409 -0.0028173581 -0.025950115 0.0017630169 -0.033576183
-0.024666715 -0.045984697 -0.042119876 0.00076198555 -0.059363127 -0.022684963 -0.10623271 -0.024514506
-0.021582438 -0.020939343 -0.024713306 -0.023677468 -0.03518054 0.000793783 -0.18943956 0.08515098
-0.0322682 -0.029143 -0.066688955 -0.036071353 0.0014779777 -0.0006858201 -0.0026975821 -0.0020667275
-0.025952486 -0.0011308219 0.00084662944 -0.0025549263 -0.024093438 0.0018110885 -0.0014939214 0.0018245243
-0.0013397806 0.00015010824 -0.0026855066 0.002877154 0.14466245 -0.0008354094 -0.04247622 -0.004199507
0.0015030662 -0.024357105 0.17647341 -0.05053959 0.08631814 0.0005747273 0.0012852168 -0.021005575
-0.0006451807 -0.0026828034 -0.023698268 -0.023862395 -0.025736652 -0.02456886 -0.062272537 0.026843041
2.8740382e-05 -0.026300324 -0.03900195 -7.8285346e-05 -0.07887423 -0.025096897 -0.001098159 -0.030742688
0.002046843 -0.18016887 -0.28767192 -0.026140092 -0.0016413342 -0.023160411 -0.020013502 -0.025955837
-0.037736896 0.0028213318 -0.0005952774 0.00060353824 -0.0007402422 -0.035554085 -0.0005716535 -0.023593891
0.023095526 0.00071575167 -0.10935267 0.00094132684 -0.024314957 -0.026309988 -0.005382272 -0.0015347596
-0.026672816 0.0719754 -0.025420574 0.019941619 -0.025735077 0.0011009416 -0.0038364076 -0.17993799
-0.023141697 0.0027370765 -0.009429483 0.0028543891 -0.029300947 -0.0015886431 -0.002536368 -0.00223797
0.0010424079 0.0017348165 -0.0010433719 -0.0396967 -0.0138694635 -0.059233915 -0.045034423 -0.024515186
-0.023011558 0.0015219147 -0.00042597484 -0.0004025267 -0.07378153 -0.16122563 -0.0022203978 -0.025518572
-0.0016768621 0.0005206447 -0.0020292385 0.00013616355 0.10432592 -0.04756634 8.997554e-05 -0.025010036
-0.043341007 0.0027160393 0.0012911218 -0.01506989 7.126946e-05 -0.0027148463 0.0010930905 -0.025461461
-0.037004523 -0.026103972 -0.061302103 5.1331008e-05 -0.046024486 -0.023460526 -0.0009548976 0.07003665
-0.02125211 -0.026062164 0.020578738 -0.0012448926 -4.3462496e-05 -0.023452895 0.0023842459 -0.18719143
-0.046999604 -0.023668053 -0.023974838 -8.401461e-06 -0.026105035 0.0013412638 -0.011842764 -7.178844e-05
-0.0068616015 -0.0017233933 -0.029647574 0.01893566 -0.00077004754 -0.037650254 -0.006751355 -0.002134121
-0.023877472 -0.02438297 -0.048070565 -0.00319488 -0.025905412 -0.025727753 -0.20946401 -0.000852976
0.00086209876 -0.023980677 -0.0011425813 0.002811341 0.0028724964 -0.016102841 0.0025350708 -0.034175556

linear3.bias f4 [60]
00000000: 637b ba3b dd40 25bc 7632 26bd 665a 73bc
00000010: 0b5d af3d bb55 33bd 062b 23be 0391 febc
00000020: ed99 6f3d 41f5 6a3d 88fd 07bd cf92 09bd
00000030: 02a2 f3bc 0d2c a13c f78f 21bd 5838 15bd
00000040: 99cc 823c cee0 07bd 00f9 0ebd ccc4 01bd
00000050: d02e 46bd 2588 5e3b 7f2b 033d 348e 27bd
00000060: 6943 0cbd ee5d d8bd d879 0ebd e73b 50bd
00000070: 0146 c03c b0ca a9bb 3820 30bb 5f54 d5bc
00000080: 9df5 69bd eede b03c 4f5e 3c3c 9117 24bd
00000090: 52ae 0cbd 66a9 0c3d 7c81 80bd 1e3a 40bd
000000a0: 3fbd 27bd 4407 06bd 1f72 c8bc ce4e 81bd
000000b0: 9dc5 77bc 6ea4 f0bb 21a8 70bb 2532 b0bc
000000c0: 062e 74bd 733f 033c 5e6b 04bd 9657 1ebd
000000d0: 7c2b 013e 7bac 08bd 6372 52bd 8afb 62bd
000000e0: 4b3b 18bd cf2f a43c 7898 ce3c 4865 a03c
0.0056909784 -0.010086265 -0.040575467 -0.014853096 0.085626684 -0.04378293 -0.15934381 -0.031075006
0.058496404 0.0573628 -0.03320077 -0.033587273 -0.029740337 0.019674325 -0.039443936 -0.036430687
0.0159667 -0.033173375 -0.034905434 -0.03168182 -0.048384488 0.003395566 0.032023903 -0.0409071
-0.034243975 -0.10564791 -0.034784168 -0.050838377 0.02347088 -0.005181633 -0.0026874673 -0.026041208
-0.057119 0.021590676 0.011497094 -0.040061537 -0.034345932 0.03434124 -0.06274697 -0.046930425
-0.040951964 -0.032721773 -0.02446848 -0.06313859 -0.015122798 -0.0073438203 -0.0036721306 -0.021508286
-0.059614204 0.008010733 -0.032328956 -0.038657747 0.12614244 -0.033367615 -0.05137862 -0.055415668
-0.03716592 0.020042328 0.025219187 0.019579545
