teams/psjw2/saved_models/model.pt (torch, 634991 bytes, 8 tensors)

fc1.weight f4 [256, 99]
000000 ac 46 0f 3d ca 1b a1 3d 19 35 81 3d f3 35 70 3d
       0.034979507 0.078666285 0.06308956 0.0586452
000010 13 1b 51 3d d3 7f af bd 64 7a 04 3c 24 ff af bd
       0.05105121 -0.085693024 0.008085821 -0.08593586
000020 63 bd 4a bd 10 ec b3 bc f1 bf b3 bd 26 61 4f 3d
       -0.04949702 -0.02196315 -0.08776844 0.050629757
000030 f7 6b 4d 3c 6c f4 d0 bd a9 61 5f bd a9 5d a1 3d
       0.012537948 -0.1020287 -0.054536495 0.078791924
000040 7d 8d 1a 3d dd 8f 95 bc 7f d9 98 bd 86 ea 62 bd
       0.03773259 -0.018257076 -0.07463359 -0.05539944
000050 c6 c0 0c bd 09 d7 92 bc 46 05 97 bc e8 c4 28 bd
       -0.03436353 -0.017924802 -0.018435132 -0.04120341
000060 88 85 a8 bd dd 3c 73 bd f4 62 d5 bd 67 f4 c5 bd
       -0.08228594 -0.059384216 -0.104192644 -0.09665757
000070 a1 fa 80 bc 47 a6 55 bd 6f 0a 9b bd 86 cf 76 bd
       -0.01574451 -0.052160528 -0.075703494 -0.060256504
000080 88 5f 19 bd b7 06 8e 3d a9 9d 1f bc 52 61 90 bc
       -0.03744462 0.069348745 -0.009742179 -0.017624531
000090 46 f9 0f bd bd b8 80 3d 79 98 dc 3c 3c 35 e6 bd
       -0.035149835 0.06285236 0.026928173 -0.112406224
0000a0 5a e4 9c bd 03 f0 46 bd a4 89 ca 3c 0f ed 85 bd
       -0.07660742 -0.048568737 0.024723835 -0.06539356
0000b0 9d 1c dd bc b1 49 d0 bc 44 32 ad 3c ec 3e a3 bd
       -0.026991183 -0.025425764 0.021142133 -0.07970986
0000c0 72 fe 1b 3d 5f 25 d0 bb eb 14 9e bb dc ee 98 3d
       0.038084455 -0.006352111 -0.004824271 0.07467434
0000d0 1a 9a 0f bd 70 3d 3b 3d 7d 38 ae bd 4a 64 4f bd
       -0.035059072 0.04571289 -0.08506868 -0.050632752
0000e0 ad 72 5d 3d fa af 55 bc f9 74 35 3d 1e 5b 7c bd
       0.05406444 -0.013042444 0.044301007 -0.061610334
0000f0 ac e1 42 3d ad af 52 3d b8 c1 11 bc 1d b0 cc bd
       0.0475785 0.05143707 -0.008896284 -0.099945284
000100 48 de ae bd 02 4c 46 3c 82 8a 96 3c 65 34 80 bd
       -0.085384905 0.012103083 0.018376593 -0.062599935
000110 d5 29 02 bd e7 2c a1 3d ee f8 82 3d 6b 80 b4 3c
       -0.031778175 0.078698926 0.06395136 0.02203389
000120 94 22 44 3b 1f 81 63 3d 93 62 65 3c 4e c9 af bd
       0.0029927837 0.05554306 0.014000553 -0.08583318
000130 05 aa 09 bd 76 42 4c 3d 35 20 41 3c 7a 2f 7e bc
       -0.03360941 0.04986807 0.011787464 -0.015514249
000140 2f a8 af bd 51 9a 5e 3d d3 41 ca bd 7f f9 89 3d
       -0.08577 0.054346386 -0.09875836 0.06737041
000150 f6 83 98 bc a0 97 de bd 5f c6 96 3d 2e 50 f9 3c
       -0.018617611 -0.10868764 0.07362055 0.03043374
000160 6d 42 ab bd c1 ef b1 bd 9a 94 a5 3d f9 86 e8 bd
       -0.08362279 -0.086883076 0.08084984 -0.11353869
000170 3a 02 2b 3d 2b f4 a9 3d 8b b4 46 3b 3b b6 5d 3d
       0.04175017 0.082985245 0.0030320014 0.054128867
000180 35 5d cd bd 61 1b 8c 3d 3e a9 62 3d 45 a3 8c 3b
       -0.100275435 0.068411596 0.055337183 0.004291924
000190 e6 33 da bd f6 22 46 3d 63 bb 24 bd 7f 15 89 3b
       -0.1065443 0.048373185 -0.04021777 0.0041834707
0001a0 c1 a5 44 bd d6 1c 44 3d 22 8c 21 bc 1d df 45 3d
       -0.048009638 0.047879063 -0.00986007 0.04830848
0001b0 d3 6e a8 bd 97 a3 98 3d e8 04 93 bd e2 4e 66 3d
       -0.08224263 0.07453077 -0.0717867 0.056227572
0001c0 74 0c a3 bd 10 c4 b0 3d f8 fc 12 bd a3 fc 84 bd
       -0.079613596 0.08631146 -0.03588578 -0.06493499
0001d0 fa b6 42 bd 03 45 8f 3c 07 52 50 3d 6e 76 c7 bc
       -0.04753778 0.017488962 0.050859477 -0.024348464
0001e0 61 bb 09 bd 77 70 b2 3c 98 9a 21 3c 01 ec c4 bd
       -0.033625964 0.021782143 0.009863518 -0.09615327
0001f0 36 fe 74 bd 91 f1 90 3d 97 f8 d7 bc 66 7f b2 bd
       -0.059812747 0.07077325 -0.026363654 -0.087157056
000200 7e 21 82 bb 4e 91 a5 3d 2d fc 2d 3d 40 b8 9c 3b
       -0.0039712777 0.08084355 0.04247682 0.0047827065
000210 90 fb 3a 3b ac 22 ad 3d 48 3b 86 bd 11 ad c9 bd
       0.002853129 0.08453879 -0.06554276 -0.09847463
000220 42 77 46 bd 2b 93 87 bd a5 ca da bd eb ac e2 bc
       -0.048453577 -0.06619867 -0.106831826 -0.027670344
000230 fd 37 98 bc 5b ea 9a bd 50 d7 b5 3d 04 bb 90 bc
       -0.018581385 -0.07564231 0.08878958 -0.017667301
000240 5f fc 03 3d 16 f0 94 3d 62 38 18 3d 6f 23 38 3d
       0.0322231 0.07272355 0.037163146 0.044955667
000250 8d 10 d4 bd cf 4b 8c 3c f7 c0 8c bd 19 9f 88 bc
       -0.10354719 0.017125992 -0.068727426 -0.016677426
000260 86 c1 b1 bd e1 bc 31 bd 79 b2 6c 3d 48 a1 3c bd
       -0.0867949 -0.04339302 0.057787392 -0.046052247
000270 df c9 c3 bd 9e cd e7 3b 70 98 59 3b a4 0f c3 3b
       -0.09559988 0.007074072 0.0033202432 0.0059527922
000280 c0 93 02 bd 2b a3 d4 bb 72 56 52 bd eb 24 4a 3d
       -0.031879187 -0.0064891777 -0.051351972 0.049351614
000290 8c f1 6a 3d b3 52 44 3d 41 b5 a3 bd 36 3c 1f 3d
       0.057359263 0.04793043 -0.07993556 0.03887578
0002a0 ec d1 6c 3d 1a 40 99 3c 30 3c c6 bc b8 78 3e 3d
       0.057817385 0.018707324 -0.024198622 0.046501845
0002b0 fb d0 94 3d b1 4e 03 3d 55 94 26 3d 34 a2 cb 3c
       0.07266422 0.032057468 0.040668804 0.024857618
0002c0 de 1f bf bd 1d 1c 80 bd 3c 4d 5b bd b4 37 17 bd
       -0.0933225 -0.06255362 -0.053540453 -0.036918357
0002d0 b8 02 30 3d 71 81 93 bd f3 ff 76 3d bc 7a da 3c
       0.042971343 -0.07202423 0.060302686 0.026669852
0002e0 54 a4 7a bd 63 8a 31 bd 00 28 b5 3d 3b a8 5d 3d
       -0.06119187 -0.043344866 0.0884552 0.054115515
0002f0 7d b9 48 bd 2c 41 b9 3d 1f 1a 14 bd 2f ee 83 bb
       -0.04900502 0.09045634 -0.036157724 -0.0040261964
000300 3b 71 4b bb 64 5b d7 3c 8f 0b f1 bc d4 49 86 bc
       -0.0031042832 0.026288696 -0.029424457 -0.016392626
000310 5e 93 b6 3d dd f8 a5 bd 32 4a 70 3d de 4d 93 3c
       0.08914827 -0.081041075 0.05866451 0.017981466
000320 f4 1e 7e bc cc 94 48 3c 83 1e d1 bd a1 b3 82 bd
       -0.0155103095 0.012242507 -0.10210898 -0.06381918
000330 30 44 68 bd 97 64 95 bd 83 8f c5 bd 8b 7c c0 bd
       -0.056705654 -0.072945766 -0.09646513 -0.09398755
000340 cf 15 9c bd 92 f4 81 bb dc 04 0a bd 3d ba ca bd
       -0.07621347 -0.0039659226 -0.03369604 -0.098988034
000350 7d fa ae bc d8 2b 25 bd 3f 5e 96 3c b5 0a 84 bd
       -0.021359676 -0.040325016 0.018355487 -0.06447355
000360 38 3c 1d bd 87 3a 5a bc 5a 1b d8 bd 0c a8 2a bd
       -0.038387507 -0.013319618 -0.10552092 -0.04166417
000370 94 9a 79 bd fb 58 1b 3d 40 d0 80 3d e8 1c 2a bc
       -0.060938433 0.037926655 0.062897205 -0.010382868
000380 a9 98 a1 bd 3b 18 8e bd bd 10 8f bd ef bd 6e bd
       -0.07890446 -0.06938215 -0.069856144 -0.058286604
000390 49 4f 1f 3d 16 f7 90 3d 39 3c a5 bd 85 71 fd 3c
       0.03889397 0.07078378 -0.08068127 0.03093792
0003a0 57 ae d5 bd 14 59 6b 3d 8f c7 54 3c 35 81 b3 3d
       -0.10433643 0.057458 0.012987032 0.08764879
0003b0 48 db 06 bd 8e 85 b7 3c 11 a3 8a bc a4 48 b9 3d
       -0.032923967 0.022402551 -0.01692346 0.09047058
0003c0 c8 bd 4e bd 09 b1 2a 3d 18 bd 32 3d 82 42 81 3d
       -0.05047396 0.04167274 0.043637365 0.063115135
0003d0 ff b6 29 bd ae 1e bf 3c ee 0c 05 bd e7 2e 7a bc
       -0.041434284 0.023330059 -0.032483034 -0.015269971
0003e0 58 4c 31 bc 08 a8 d1 bd 49 11 d9 bd 6e 0b d2 bc
       -0.010821424 -0.102371275 -0.10599 -0.025640216
0003f0 83 ce cd 3c 9e fe ba 3d 06 6e 0c 3d 0c 7b 9b 3d
       0.025122887 0.091305956 0.034284614 0.07591829

fc1.bias f4 [256]
000000 fd 32 38 3d 8d 9d 3c bd 4f a0 11 3d 7e cc 1c 3d
       0.0449705 -0.04604869 0.035553273 0.038280956
000010 ec 36 16 3d fd 8b a5 bd 4a 13 b5 3c ad af 3f bd
       0.03667347 -0.08083341 0.022103924 -0.046798397
000020 76 f3 1d 3d 1c ef 1e bd 64 29 f5 3c af 87 b2 3d
       0.03856226 -0.03880225 0.029926963 0.08717286
000030 10 b2 45 3c b3 ea 82 3c 66 ab 21 bd c6 4f 94 bc
       0.012066379 0.015981054 -0.0394701 -0.018104445
000040 ec f8 08 3d 13 ac 71 3d c3 02 91 bd e4 c8 bb bc
       0.033440515 0.059001993 -0.07080605 -0.02292294
000050 bd e5 2b 3d 00 4f 2b bd de c8 e5 3b ab da a4 3d
       0.041967142 -0.041823387 0.0070124706 0.0804952
000060 8a cc 1d 3d 11 42 29 bd cc c1 9f bd 81 8c 9e bc
       0.03852514 -0.04132277 -0.07800636 -0.019354107
000070 5e b8 06 bc fb a8 72 bd ff 34 02 3c 49 a8 f3 3c
       -0.0082226675 -0.059243184 0.007947206 0.02974333
000080 1a 31 e2 bd f1 0d 6e bc fc 3b fa bb e7 8e 0a 3d
       -0.11044522 -0.014529691 -0.007636545 0.03382769
000090 4d ba aa bd 90 f9 8d bd 54 77 0a bb b8 54 1a bd
       -0.08336315 -0.06932366 -0.0021128254 -0.03767845
0000a0 fd 29 1e bd 9b 03 fd bc 33 60 b8 bd 07 92 71 bd
       -0.038614262 -0.030885508 -0.090027235 -0.058977153
0000b0 a6 86 c7 3d 06 2b a0 bd b4 44 2d 3c 72 fd b0 3a
       0.09742479 -0.07820706 0.010575462 0.0013503267
0000c0 4b 75 83 bd 0a 74 94 bd ed 15 92 bd 7b 83 6f 3d
       -0.06418856 -0.07248695 -0.07133088 0.058475
0000d0 8f 39 83 bd de c3 91 bd db 46 c8 3d f2 f0 a6 bd
       -0.06407463 -0.07117437 0.097791396 -0.081514254
0000e0 87 f6 03 3d 72 f3 8b bd b9 6b c4 bd 18 53 2a 3d
       0.03221753 -0.06833543 -0.09590859 0.04158315
0000f0 97 b3 d4 bc 98 81 75 bd 64 dc f5 3d 9f 4f 30 3d
       -0.025964541 -0.059938043 0.12004927 0.043044683
000100 77 14 83 3d 32 8b 4b bd 1c 7c 66 3d 84 1a af bd
       0.06400388 -0.049693294 0.056270704 -0.08549979
000110 40 85 94 bd ff ca 23 3d c3 f8 a1 bd b4 7f 05 3d
       -0.07251978 0.039988514 -0.07908776 0.03259249
000120 22 02 ab bd ce fb cc bd 24 9a e9 bc bb 3a 4c bd
       -0.08350016 -0.100089654 -0.028515883 -0.049860697
000130 97 bc c6 3c 93 fb 62 3d 28 dd b5 3d 5d f4 9b bd
       0.024259849 0.0554157 0.08880073 -0.07614968
000140 1f 41 90 bd 6a 88 8f bd 41 7d 0e bd 48 4b 0c 3d
       -0.07043671 -0.07008441 -0.03478742 0.03425148
000150 72 4c 0c bd 1a 31 eb 3d 0e 4b 2e 3d 75 26 07 3d
       -0.03425259 0.11483975 0.042552046 0.03299566
000160 a6 65 76 3d 00 d3 cb bd cf db a7 3d 63 6d 2f 3d
       0.060155533 -0.099523544 0.08196222 0.04282893
000170 27 b7 b3 3d 36 01 cd 3d 27 d8 16 3d e0 ba b3 3d
       0.08775168 0.100099966 0.036827233 0.08775878
000180 13 6c 93 bd 10 cd 9b bd bf ac a5 bd e0 b8 a3 3d
       -0.07198348 -0.07607472 -0.08089589 0.079942465
000190 61 e5 81 bd 15 b5 fa bc 10 65 d0 bc 92 00 b1 bd
       -0.06342579 -0.030603925 -0.025438815 -0.08642687
0001a0 da 22 3c 3d 85 c9 69 bd 72 74 66 3c cd dc 5c 3d
       0.045931675 -0.05707695 0.014065849 0.05392151
0001b0 2c 7b 9f 3c 93 9c 2b bd 29 5a d1 bd 21 80 67 bc
       0.019467913 -0.041897368 -0.10222275 -0.014129669
0001c0 62 c3 b5 bd cb 69 aa 3c 29 da 2f 3d 78 92 42 bd
       -0.08875157 0.0208024 0.042932663 -0.047502965
0001d0 7c 90 4c bd ad 50 35 bd f9 2e 3d bd 5e b1 5e 3d
       -0.04994248 -0.04426639 -0.046187375 0.05436837
0001e0 21 99 e5 3d 6a 04 59 3d b5 67 99 bd 25 00 14 bd
       0.11210848 0.052982725 -0.07490484 -0.03613295
0001f0 ee 7f be 3c 15 41 54 3d 5d 6e a0 bd 55 32 cb bd
       0.023254361 0.05181988 -0.0783355 -0.099217094
000200 a3 6e 0c bd 9e 1a 88 bd c0 6e bd 3a 07 1c 80 bd
       -0.0342852 -0.06645702 0.0014452562 -0.06255346
000210 35 21 97 bd c2 c1 d7 3d 5a 19 92 bd f1 b1 35 bc
       -0.073793806 0.10535003 -0.07133742 -0.011089788
000220 60 5b 1e bd 48 f6 b2 3d a8 06 91 bd a6 5e 6f 3d
       -0.03866136 0.08738381 -0.07081348 0.058439873
000230 ae ed c2 3c e3 37 c6 bd ed 2f 36 3d 00 76 a7 3b
       0.023794975 -0.09678628 0.0444793 0.0051105022
000240 ee 10 ed bc 4a 49 67 bd 41 6e 9b bd cf cf 5b bd
       -0.028938737 -0.05646638 -0.07589389 -0.05366498
000250 95 c8 f8 bb 87 f1 99 bd 13 37 64 bb b9 5a 8e 3d
       -0.0075922706 -0.07516771 -0.0034822866 0.06950898
000260 84 da f8 bb 09 52 3d 3c 64 e7 2e bc 09 c4 be 3c
       -0.0075944085 0.011555203 -0.010675285 0.023286836
000270 e2 db 7b bc 41 49 83 3d e6 48 18 bd 56 4a ad 3d
       -0.015372248 0.064104564 -0.037178896 0.08461444
000280 3b f7 b4 3d fd b0 35 3d 7a 29 c1 3d 54 3b ee bb
       0.08836218 0.044358242 0.09431739 -0.007270256
000290 cf 40 6f 3d 6a 06 d8 bd 57 a4 a9 3d 2a ee 3b 3b
       0.058411416 -0.105480984 0.082832985 0.0028675892
0002a0 4f 95 2b 3b 21 33 7f 3c b0 61 93 bc 1f 85 a6 bd
       0.0026181524 0.015576155 -0.017990917 -0.081308596
0002b0 f8 a1 cd bd 08 08 6c bd 60 3b ce 3d ca 57 ed bc
       -0.10040659 -0.057624847 0.10069919 -0.028972525
0002c0 8c c8 9c 3d 90 f4 85 3d df db a0 bd 6b 57 f2 bc
       0.07655439 0.06540787 -0.07854437 -0.0295827
0002d0 72 9c 25 bc f3 a9 a8 bd 51 b3 af bd 6d e5 21 bd
       -0.0101081 -0.0823554 -0.08579124 -0.039525438
0002e0 7e a8 d2 3c 45 00 8a 3d df d7 ba bd 0c 90 08 3d
       0.025715109 0.06738333 -0.091232054 0.0333405
0002f0 ff ad ba bb 00 16 07 3b fe e2 13 bd 93 6c 0e bd
       -0.0056970115 0.0020612478 -0.03610515 -0.034771513
000300 e8 ca 18 bd be 34 ce bd f0 af 90 3b ae 52 c8 bd
       -0.03730288 -0.100686535 0.0044155046 -0.09781395
000310 cd 70 ca bd be 83 5c bd e3 1f d3 3c 80 30 59 bd
       -0.09884796 -0.053836577 0.02577204 -0.05302477
000320 42 0e bc bd fb a0 90 3b f6 2f 08 bc 50 56 3a 3d
       -0.09182407 0.0044137216 -0.008312216 0.04549247
000330 40 db 08 3c f4 69 d9 bb 94 88 30 b9 96 58 d6 bd
       0.0083530545 -0.006634945 -0.00016835547 -0.10466115
000340 bf ed c8 bd 46 01 a2 bd 03 f2 ac bd ac c1 cf bd
       -0.098109715 -0.07910399 -0.084445976 -0.10144362
000350 08 cc 86 bd 22 d7 90 bd a5 cc 61 3b 96 68 a0 bd
       -0.065818846 -0.07072283 0.0034454253 -0.07832448
000360 e7 73 94 3d 74 df 94 bd f5 b7 d6 bb ff 39 f7 3c
       0.07248669 -0.07269183 -0.006552691 0.030179022
000370 29 30 63 3d 2a 24 8b 3d 69 58 88 3d 5f 9d 90 3d
       0.05546585 0.06794007 0.06657488 0.07061266
000380 9a 1c ae bd 1e 97 29 bc 84 f4 92 3d e3 79 82 3d
       -0.08501549 -0.010350971 0.07175544 0.06370904
000390 38 f0 01 3d f2 87 80 3c 18 e6 d1 bd 5d fc 42 bc
       0.03172323 0.015689824 -0.10248965 -0.011900988
0003a0 b7 0b 99 3d cf d5 1a bd 19 83 99 3d 18 8a ab bd
       0.074729376 -0.03780156 0.07495708 -0.08375949
0003b0 87 24 93 bd 49 02 68 bd b0 b3 b9 bd 14 29 ac 3d
       -0.071847014 -0.056642804 -0.09067476 0.084062725
0003c0 0a c4 69 bd 2e 1f 48 3d 1c 1f 32 bc 9c 0c 2e 3c
       -0.057071723 0.04885786 -0.010871675 0.0106231235
0003d0 20 82 15 bd 58 8e a6 bd 03 fc 72 3d 02 6c c4 bc
       -0.03650105 -0.08132619 0.05932237 -0.023977283
0003e0 4a da 7c bd 38 d2 25 3d 22 66 9b bd 6c 93 9a 3d
       -0.061731614 0.040483683 -0.0758784 0.0754765
0003f0 30 01 1b bd 3f d4 1f 3d f5 17 95 3d dc 65 c8 3d
       -0.03784293 0.039020773 0.0727996 0.09785053

fc2.weight f4 [256, 256]
000000 66 89 2e 3d 99 62 a0 3c 16 e5 50 3d 14 71 2d bd
       0.042611502 0.019578265 0.050999723 -0.042344168
000010 64 c3 2d 3d ab c0 df 3c a0 5a f3 bb 5e d8 08 bd
       0.042422667 0.027313551 -0.007426575 -0.03340947
000020 00 a3 fa bb 19 3f 48 bd 34 8f de 3c 78 23 cc bc
       -0.0076488256 -0.0488883 0.027167894 -0.024919257
000030 82 1d 4b 3d a8 a0 31 3c ef 5a a3 bc a8 75 8c 3c
       0.049588688 0.010841526 -0.019940821 0.017145947
000040 ba f8 48 bd 20 d6 02 3c b7 24 92 3b 30 69 3f bc
       -0.04906533 0.007985622 0.004459943 -0.0116827935
000050 d9 7b 07 3c a4 bb b1 3c 80 bc 94 bb ec e9 d9 bc
       0.008269274 0.02169592 -0.0045390725 -0.0266008
000060 d8 64 80 3c a2 9c 10 3d b5 fb ab 3c 47 3c 22 3c
       0.015673086 0.035305627 0.020994047 0.009902067
000070 f1 cf d6 bc 2e 36 48 3d 0c da 7e 3c 0c 8f 23 3d
       -0.026222201 0.048879795 0.015554916 0.039931342
000080 ef a9 4b bd f5 58 c6 bc f3 b8 33 bc ec a7 5a bd
       -0.04972261 -0.02421234 -0.010969388 -0.0533828
000090 7b 19 d5 3c a3 6f 5a 3d 18 ce 3c 3d c5 16 00 3c
       0.026013127 0.05332912 0.046094984 0.007817929
0000a0 af 07 f9 bb 39 7b 72 3d c0 e0 52 3c 8a e7 70 bd
       -0.007599793 0.059199546 0.012870967 -0.058814563
0000b0 be 03 ad bc 2c 8a 00 bd b2 24 ac 3c 27 40 4d bd
       -0.021119948 -0.03138177 0.021013591 -0.05011001
0000c0 3b 16 84 bd 98 3a 68 bc 21 a6 dd 3c 4d c9 3a 3c
       -0.064495526 -0.014174126 0.027056755 0.011400533
0000d0 d4 23 24 3d ba c6 ff bc 37 e0 f6 3c 38 4b 5a bc
       0.04007323 -0.03122269 0.03013621 -0.013323598
0000e0 9b 6e 52 3d 1e 9b 85 bc 0c 76 55 3d f1 c9 65 3d
       0.051375013 -0.016309317 0.05211453 0.05610079
0000f0 e7 d6 21 3d 69 76 32 3c 5f d1 ca 3b da c3 18 bd
       0.039511587 0.010892489 0.0061895098 -0.037296154
000100 fd 09 a1 3b 6b c5 5d bc 59 33 4b 3d 06 12 00 3d
       0.004914521 -0.013535838 0.049609516 0.03126719
000110 ee e8 39 bd 72 b3 3c bd 90 81 69 3d 43 b4 3a bb
       -0.045388155 -0.04606957 0.057008326 -0.0028488792
000120 a0 df dd 3b 6c 2c 32 bd 9b 7f 43 bd 00 56 68 3a
       0.006771043 -0.043499395 -0.047729116 0.00088629127
000130 64 67 73 bd 92 07 bb bb 38 5b d7 3c 85 9a 67 bd
       -0.059424773 -0.0057076896 0.026288614 -0.056543846
000140 d3 5d 3d bd 33 c8 86 bd 4d 6a 16 3d 3f 22 5a 3d
       -0.046232056 -0.06581154 0.03672247 0.053255316
000150 58 64 e3 bc 78 a7 d0 39 e8 1c f6 bc 31 f2 bd bc
       -0.027757809 0.00039797626 -0.03004308 -0.023186775
000160 b6 ef a4 3c 99 db 35 3d d4 5d 86 3c 95 87 a5 3c
       0.020133834 0.044398878 0.016402163 0.020206252
000170 04 2a 47 bc 67 36 38 bd 84 c7 0d bd bb 81 13 3c
       -0.012156013 -0.044973757 -0.0346141 0.009003098
000180 e7 f8 99 bc e9 53 0f bb 74 41 02 3d 94 f3 03 bc
       -0.018795444 -0.0021870083 0.031800702 -0.008053679
000190 d7 03 3d bd c0 29 c2 3c a4 b2 18 3d e1 ec 67 bd
       -0.04614624 0.023701549 0.03727974 -0.05662239
0001a0 70 64 82 bb c7 68 87 bd 59 f4 38 3d b9 26 56 bd
       -0.0039792582 -0.066117816 0.045154903 -0.052283023
0001b0 12 54 2f 3d cd 69 a8 3c c4 fa 6f bd 8f 44 d4 bb
       0.042804785 0.020558262 -0.058588758 -0.0064778994
0001c0 d2 74 1e bd 75 d4 6c bd 80 1d 8e bc 7b ff f6 bc
       -0.038685627 -0.057819802 -0.017348051 -0.03015112
0001d0 95 0f 84 bd ea 52 5b bd 5e 5f ed bc bb 4b d9 3c
       -0.064482845 -0.05354587 -0.028976139 0.026525369
0001e0 4c 80 09 bd 6f 98 83 bd 49 ad 44 3d 50 be 5e bd
       -0.03356962 -0.06425559 0.04801682 -0.054380715
0001f0 6f 90 ea 3a bf d9 08 3d ad 7b fe bb 6a 1f 4b bd
       0.0017895828 0.033410784 -0.007766208 -0.049590506
000200 b0 22 8f bb b0 7e bb 3b 40 24 be 3c c8 9e 3f 3d
       -0.0043681487 0.0057218894 0.023210645 0.046782285
000210 ac b4 3d 3c 5c 92 1f bc 98 11 be bc 0a 7d 14 3d
       0.01157872 -0.009739485 -0.023201749 0.03625206
000220 11 cb 61 bd 18 7a 45 bd 9f 47 f8 3c c8 ea c4 bc
       -0.0551253 -0.04821214 0.03030759 -0.024037734
000230 b2 44 fc bc 2a 7a 6b bd 4a 5f 25 bd 64 42 30 bd
       -0.030794475 -0.05748955 -0.040374078 -0.043032065
000240 a9 a1 77 bd 2c 6b ce bc 4f ae 71 bd 1f a2 c2 bc
       -0.060456906 -0.025197588 -0.059004124 -0.023758946
000250 07 f3 e9 3c a2 56 07 bd 03 5d 04 bc 12 3b 63 3c
       0.028558267 -0.033041604 -0.008078816 0.013869064
000260 82 d7 48 bd 43 49 d1 bb cc 1b 41 3d 83 47 77 bd
       -0.04903365 -0.0063869073 0.04714565 -0.060370933
000270 2c 46 89 bd 5f b4 04 3d b5 af 08 3d a3 66 04 3d
       -0.06702837 0.032398578 0.033370692 0.032324445
000280 b4 d3 58 3d 94 90 77 bd e6 1a 4a 3c e0 d8 98 3c
       0.05293627 -0.060440615 0.012335515 0.018658102
000290 24 70 ea bc 08 ce 4c bd bc 71 8c 3b 00 aa 0b 3d
       -0.028617926 -0.050001174 0.004286019 0.03409767
0002a0 fe b4 9f bb e8 ac 1c 3d 52 4d 00 bd 04 0d 97 3c
       -0.004873871 0.038250834 -0.03132374 0.018438824
0002b0 f9 0e 63 3d 84 ad f6 3c fe 33 d8 3c f2 56 6c bd
       0.0554342 0.030112036 0.02639198 -0.057700105
0002c0 fa e0 86 bd fc 67 4c 3d ee 6c 0f 3d 61 fb ab 3b
       -0.065858796 0.049903855 0.035015993 0.0052484726
0002d0 40 4e 18 bc f2 59 54 3d fe 1b e9 3c d2 d5 3a bb
       -0.009296 0.05184359 0.02845573 -0.0028508794
0002e0 8a cd 2a bd 29 55 95 bc 90 1a a3 bc 1e 14 87 bc
       -0.041699924 -0.018229084 -0.019910127 -0.016489085
0002f0 ed b3 bb bc 04 c1 8a 3c 50 82 b6 3c 96 e0 93 bd
       -0.022912944 0.01693774 0.022278935 -0.07220571
000300 d4 15 95 3c b1 2f c1 3c 90 14 48 bc 9d fa a0 bc
       0.018198885 0.023582311 -0.012211934 -0.019650752
000310 61 58 1b 3d d0 ac 93 bb 96 16 23 3d 6a f5 19 3d
       0.03792608 -0.004506685 0.03981646 0.03758756
000320 2a 1e 18 3b 4b 08 24 bd 6e 93 08 bd b2 d8 a7 bc
       0.0023211339 -0.04004697 -0.033343725 -0.02048907
000330 3a 25 86 bd f0 cd a2 bb bf 98 17 bd c2 97 2d 3d
       -0.06550069 -0.0049683973 -0.037010904 0.042381056
000340 cd ff 7a 3d de 3a 10 3d ca aa df bc 8a ec 39 3d
       0.061279107 0.03521239 -0.027303118 0.045391597
000350 7f 39 1c 3d ef 13 3b 3d d8 0b 20 3c f1 34 53 3c
       0.03814077 0.045673307 0.009768449 0.01289104
000360 e3 f1 02 bd 77 09 a1 bb 88 ae d7 3c 30 bf ce bb
       -0.031968962 -0.0049144584 0.02632834 -0.0063094124
000370 f8 a3 54 bd f1 f6 8d bc ae e4 72 3d fd 6a c4 3c
       -0.051914185 -0.017329665 0.059300117 0.023976797
000380 ca 6e 69 bd ad 7f ca 3c 82 2d 5c bd c4 fb 9a 3a
       -0.056990422 0.024719084 -0.053754337 0.00118243
000390 fd a0 34 bd ae b6 46 bd c3 09 ae bb 19 29 65 bd
       -0.044098843 -0.04851406 -0.0053112223 -0.055947397
0003a0 8f 2d d8 bc 3f a3 1e 3d 4e 20 06 3d 8f 04 59 3d
       -0.026388912 0.038729902 0.032745652 0.052982863
0003b0 54 34 0d 3d 97 f3 51 bd a4 a8 29 bd e1 5e 85 3b
       0.034473732 -0.051257696 -0.041420594 0.0040701483
0003c0 10 ed b9 3c d0 27 c5 3c c0 83 03 3d 4e fe f5 3c
       0.022696048 0.024066836 0.03210807 0.030028488
0003d0 46 c5 8a bd ab ff bd bc 75 c3 6e bd 00 38 08 bd
       -0.06775908 -0.023193201 -0.05829187 -0.03325653
0003e0 9c 2b 96 bd 8b 93 33 bd 02 e7 72 bc bf f9 9c bd
       -0.073325366 -0.04384188 -0.014825584 -0.07664823
0003f0 98 60 18 3c a6 57 27 3d 00 fe c4 39 3b 09 a8 bb
       0.0093003735 0.040855072 0.00037573278 -0.0051280535

fc2.bias f4 [256]
000000 7a d9 57 3b d6 e0 48 bd 88 2a ce 3c d0 4f 19 3d
       0.0032936023 -0.049042545 0.025166765 0.03742963
000010 21 73 5b 3d 8d 9f 23 3c c4 0a 34 3d 59 e6 08 bd
       0.053576592 0.00998677 0.04395558 -0.0334228
000020 01 b0 84 3d 95 53 80 bd 3f 28 87 bd 62 50 11 3d
       0.064788826 -0.06265942 -0.06599473 0.03547705
000030 ed 06 63 bd 85 cd 77 bd de 3b 93 bc fd 1e 83 3d
       -0.055426527 -0.060498733 -0.017972883 0.06402395
000040 ce b0 e0 3c 79 28 c5 39 59 aa 45 3d b8 da 44 3d
       0.027428057 0.00037604923 0.04825816 0.04806015
000050 dc ac 9f 3c ef 47 ed bb 07 3b d2 3b cd e5 f0 3a
       0.019491605 -0.007241241 0.006415728 0.0018379033
000060 74 cd 76 3d 8c d9 f7 3c 58 f9 66 bc 59 d5 b2 bc
       0.06025453 0.030255102 -0.014097534 -0.021830248
000070 a0 ca 16 3b 21 83 cf bc 54 89 f8 3c c1 6f b6 bc
       0.0023008958 -0.025331082 0.03033892 -0.022270085
000080 49 bb 3c bc b5 b7 c8 bc de 09 27 3d 99 a4 09 bd
       -0.011519262 -0.02450166 0.040780894 -0.03360424
000090 cf 42 68 bc b2 ac 69 bd 19 73 7f bd d1 fc 27 bd
       -0.014176085 -0.05704946 -0.062365625 -0.04101259
0000a0 bd 32 2e bc 6b 01 15 3d 29 83 cc 3b 25 15 de 3c
       -0.010632214 0.036378305 0.0062412214 0.027109692
0000b0 ea fc 98 3b b7 ac 07 bc 87 4b 97 3c e4 5c 46 bd
       0.0046688216 -0.0082809245 0.018468631 -0.04842843
0000c0 c6 23 8b bd 59 50 f1 bc 4e e2 a6 bc 43 47 06 3c
       -0.067939326 -0.029457258 -0.020371582 0.008195701
0000d0 28 c5 38 bd 73 52 8b 3c ee f4 d6 3c 78 69 78 3c
       -0.045109898 0.017007088 0.026239838 0.015161864
0000e0 46 32 90 b9 80 97 3a 3b 3f d1 3f 3d 3d 6b 0b 3d
       -0.00027503277 0.0028471649 0.046830412 0.034037817
0000f0 4f 63 24 bd e1 bd a0 bb b7 ff 9f 3d 34 0f d9 bc
       -0.04013377 -0.004905448 0.078124456 -0.026496507
000100 60 f5 ab bc 02 d4 c1 b9 73 61 5d bd 4a 0f 2b bd
       -0.020991027 -0.00036969787 -0.054048013 -0.041762628
000110 93 78 38 3a 2a 36 ab bc 2e 6e fa 3c 6f b9 c5 3c
       0.000703701 -0.02089985 0.030570116 0.024136273
000120 bc c5 13 3a 60 05 33 bd 9d 84 09 3d 50 81 a0 3c
       0.00056370697 -0.043706298 0.033573736 0.019592911
000130 a3 5c 60 bd b3 ba a2 3d 5a 73 75 bd 51 a3 22 3d
       -0.054775845 0.07945766 -0.05992446 0.039706532
000140 39 15 17 3c 04 97 32 bc 9a 6d 51 3b 28 4f 48 bd
       0.0092213685 -0.010900263 0.0031956197 -0.048903614
000150 24 db d1 bc 60 a3 ae 3c 33 7f 48 3d bc 55 39 bd
       -0.02561719 0.021318138 0.04894943 -0.04524778
000160 ad 4f 37 3d 5c 57 4d 3d d9 a3 dd 3c 16 d0 06 bd
       0.04475372 0.05013214 0.027055668 -0.03291329
000170 2f f0 f4 3b bc 8d a6 bc 85 49 ac 3c b0 56 08 3d
       0.007474921 -0.020331256 0.02103115 0.033285797
000180 00 de a8 3b 80 b1 84 3d 0f 20 ee 3b 04 f0 4d 3d
       0.0051534176 0.06479168 0.0072670053 0.050277725
000190 9e 79 b7 bc 91 0b 82 3d be a0 b3 bc 4a 64 65 bb
       -0.022396859 0.06349862 -0.021927234 -0.0035002404
0001a0 a5 ea 69 3d 4e bb 6f bc 99 b4 36 bc 0a ae 69 bc
       0.05710854 -0.014632059 -0.011151456 -0.014262686
0001b0 39 a4 a9 3d a4 fc 01 bc 5f 12 28 3d 8a 82 3b bd
       0.08283276 -0.007933769 0.041033145 -0.04577879
0001c0 dc 7b bf 3c 6a 04 2e 3d 9b 34 b0 3d b4 4b 37 bd
       0.02337449 0.04248468 0.08603784 -0.04474993
0001d0 b1 f2 23 3d f7 e3 d7 3b 61 ff 44 3d 63 40 07 3c
       0.04002637 0.006588455 0.04809511 0.008255097
0001e0 d7 14 55 3d a6 06 05 b8 10 b1 05 3d 84 59 37 bc
       0.052021828 -3.1715863e-05 0.032639563 -0.011190776
0001f0 d4 48 4e bd ab d4 9a 3c 47 b0 37 3d f4 92 e2 bb
       -0.050362423 0.018900236 0.044845846 -0.006914491
000200 83 03 b4 bb 1e 48 00 bd 52 ae 97 3d b8 60 10 3c
       -0.0054935827 -0.031318776 0.07406296 0.008812122
000210 3d 92 84 bd dc 93 25 3d d0 72 55 3c 78 ff 1a 3d
       -0.06473205 0.040424213 0.013027862 0.03784129
000220 59 88 54 bd aa 9b 61 bc 24 89 d0 3c c5 be 31 3d
       -0.051887844 -0.013770023 0.025456019 0.043394823
000230 eb 89 30 3c ec 57 45 3d 53 fb 6e 3d 2c fc 3a 3a
       0.01077507 0.048179552 0.05834515 0.00071329135
000240 9f 6f fa 3b 18 4d d9 3c de 11 e7 bc 8e 62 ae 3c
       0.007642701 0.026526019 -0.028206762 0.021287229
000250 44 2c a0 3c 63 3b 2a bd 24 e2 26 bd 75 d6 80 3c
       0.019552357 -0.04156054 -0.04074301 0.015727261
000260 e7 7f be 3c 5d 90 41 3d 20 3a 5f 3d 91 02 03 bd
       0.023254348 0.047256816 0.05449879 -0.03198487
000270 c3 19 26 bd 4c 6c 39 3b 5b 95 74 bd 0f 66 bb bc
       -0.040551912 0.002829331 -0.05971275 -0.022875814
000280 b1 d1 bb 3b 57 53 ba 3b 07 96 ae 3c 9c 95 0a 3d
       0.0057317843 0.0056862044 0.021311773 0.033834085
000290 94 37 f9 bc 2e a1 ed bc d4 6f 61 3d f6 d7 ab 3c
       -0.03042201 -0.02900752 0.05503829 0.020977002
0002a0 e5 4f d1 ba ec 08 0c bc 75 10 22 3d 17 f1 a5 3c
       -0.0015969245 -0.008547049 0.039566476 0.020256562
0002b0 74 a0 03 3d ea b0 bf bc a6 b4 9e bd 5d ac 2c bd
       0.032135442 -0.023399789 -0.077493 -0.042156566
0002c0 9d 52 06 3d f3 51 5d 3d a6 ae 4d 3d 55 6c 5b bd
       0.03279363 0.05403323 0.050215386 -0.05357011
0002d0 11 b7 66 3c 17 fc dc bc f8 f2 47 bd b2 3e 21 3d
       0.014081732 -0.026975675 -0.048815697 0.03936643
0002e0 7a 4f 23 3d d4 74 f0 bc 45 46 10 bd 74 e7 a8 3c
       0.039870717 -0.029352583 -0.035223264 0.020618178
0002f0 6d 27 42 bd 76 36 d3 bc fe 15 06 bd 14 5c 09 bd
       -0.04740088 -0.025782805 -0.032735817 -0.03353508
000300 a4 3e 41 bd 85 da 7f 3c 81 c5 07 bd b9 cb 49 3d
       -0.04717888 0.015616064 -0.03314734 0.04926655
000310 8b dc 1d bd cd f1 b3 3d cc eb 6f bd 18 9a 5f 3c
       -0.038540404 0.08786354 -0.058574483 0.013647579
000320 d5 c6 01 3d 62 d7 79 3c e4 ae ea 3b 48 51 86 bc
       0.03168376 0.015249105 0.007161962 -0.01639618
000330 ca b1 68 bd b9 25 8c 3c 5d 90 56 3d 1f 57 70 bd
       -0.056810178 0.017107831 0.05238377 -0.058676835
000340 60 b2 89 bc 17 2a 70 3c d6 33 2c bd 5e 02 16 3c
       -0.016808689 0.0146584725 -0.042041622 0.009155838
000350 3e 72 28 bd d5 dc 20 bd f2 ac 1c bd 93 9f 84 bc
       -0.041124575 -0.0392731 -0.03825087 -0.016189372
000360 05 ad 0c 3d c9 e0 08 3d 1e d2 55 bd 5c b8 34 bd
       0.03434469 0.033417497 -0.052202336 -0.04412113
000370 a5 00 38 bd 62 e1 1d 3c d9 89 8a bd 1e d5 1a 3d
       -0.04492249 0.009636255 -0.067645736 0.0378009
000380 bb 94 87 bd df 74 c2 bc 4e ea 45 3d 00 f2 86 3c
       -0.06620165 -0.02373737 0.048319153 0.016472816
000390 bd 07 4a bb 1a 4b 68 bd c5 17 08 bc 22 c9 1f bd
       -0.0030827366 -0.056712247 -0.008306448 -0.039010175
0003a0 18 02 aa bc ed e8 d6 3c 67 72 96 3d a1 51 01 3b
       -0.020752952 0.026234115 0.07346039 0.0019732493
0003b0 b8 58 66 3c 37 c1 0d 3d c0 77 30 bc 81 e3 63 3c
       0.014059238 0.034608092 -0.010770738 0.013909222
0003c0 4c 4a bc 3b 70 2c 86 bc 4d 94 34 ba 98 b2 53 bd
       0.0057461616 -0.016378611 -0.00068885536 -0.051683992
0003d0 f0 1e 3d bc 0f d9 6d bd ad cb 3d 3d 6c a3 08 bd
       -0.011543021 -0.05806833 0.04633682 -0.033358976
0003e0 16 78 50 bd 5c 8a 28 3d 8b 5a bb bc c4 a1 0a bd
       -0.050895773 0.041147575 -0.022870323 -0.033845678
0003f0 a4 0b c9 3c 0d 3b ad 3c 08 74 d1 bc 80 65 e4 bb
       0.024541683 0.021146322 -0.025568023 -0.0069701076

fc3.weight f4 [256, 256]
000000 51 94 68 bc b0 7b d1 bb b8 97 1c bc be 66 14 3c
       -0.014195518 -0.0063929185 -0.009557657 0.009057699
000010 7f 0f 1c 3c 61 33 33 3c 28 37 40 bd 62 df 8b bc
       0.009525179 0.010937543 -0.0469276 -0.01707429
000020 4b bf 4c 3a 3c 5f 5c 3d d1 54 53 3d ab ce 3c bd
       0.00078104873 0.05380176 0.05159456 -0.04609553
000030 52 c0 26 3d 94 97 06 bd 55 55 18 3d af be 84 bc
       0.040710755 -0.0328594 0.037190754 -0.016204206
000040 d5 79 53 3d 36 28 3b bd 25 d8 07 3d bc 27 12 3d
       0.05162986 -0.045692645 0.033165116 0.035682425
000050 00 28 23 3c 54 69 1d bc 0c 96 e1 3c 43 a2 66 bd
       0.009958267 -0.009607632 0.027537368 -0.05630709
000060 2c 27 80 3c 50 39 c6 3c b0 e0 49 3c 61 f2 11 bd
       0.015643679 0.02419725 0.012321636 -0.03563154
000070 48 b3 04 3c a9 62 60 3d bf 21 45 3d db 17 a0 3b
       0.008099385 0.05478159 0.048127886 0.0048856563
000080 78 28 ec 3c d6 23 cd 3c 98 ca ac bc e6 68 7f bb
       0.02882789 0.025041502 -0.021092698 -0.0038972436
000090 b4 c8 58 bd 30 48 0a 3d f1 46 80 bd ac 4c 05 3d
       -0.05292578 0.03376025 -0.06263531 0.032543823
0000a0 42 0d 85 bb fb 1f a7 bb e5 f7 00 bd fd 8f be bb
       -0.0040604183 -0.005100248 -0.03148641 -0.0058155046
0000b0 3c c6 b4 bc a5 32 01 3d e8 c9 b1 3c c7 d0 33 3c
       -0.022067182 0.03154244 0.021702722 0.010975069
0000c0 62 6b 66 bd 28 ce 7b 3d bd bd fb 3c 23 d4 5c bd
       -0.056254752 0.061475903 0.030730123 -0.053913247
0000d0 9b a1 0a 3d fc 3f 3a 3c fa 0f e5 3c 50 9c 27 bc
       0.033845525 0.011367794 0.02796172 -0.010230139
0000e0 c9 ed 82 bd 88 46 ec 3c 5f bc 38 bb 44 6c 0c bd
       -0.0639301 0.028842226 -0.002818845 -0.034282938
0000f0 2b 93 4b bd 2a 9e 8c bb 0f 4b e4 bc 52 09 b9 3c
       -0.049700897 -0.0042913156 -0.027867822 0.022587452
000100 20 21 47 bb 03 f4 e6 3c e8 57 30 3d c1 fa 36 3d
       -0.0030384734 0.028192526 0.043052584 0.04467273
000110 3c 6e a1 bc 68 1a 50 3d cc b0 88 bd e8 16 0d 3d
       -0.019705884 0.050806433 -0.06674346 0.034445673
000120 c2 e3 42 3d 60 28 67 bd 67 a0 e0 3c 58 92 8f bc
       0.047580488 -0.05643499 0.027420236 -0.017525837
000130 7b 84 24 3d 52 80 27 bd ba cf 2d bd 4a 96 45 3c
       0.040165406 -0.04089386 -0.04243443 0.0120597575
000140 11 3e f6 bc 7f d9 22 3d df 03 3c 3d 00 60 11 3b
       -0.030058892 0.0397582 0.04590213 0.0022182465
000150 a0 8d 14 bb 78 44 a9 3c be 03 3a 3d 9e f9 7e bd
       -0.0022667423 0.020662531 0.045413725 -0.062249772
000160 49 3c 01 3d 5c 77 1f 3d 7d a3 bb bc c0 4e e0 3a
       0.031551633 0.03893219 -0.022905106 0.0017113313
000170 b0 ad e3 bb c8 9a f2 bc 74 e0 c2 3c 99 fb 10 3d
       -0.0069481954 -0.029614821 0.023788668 0.035396192
000180 28 b4 d8 bc ba d8 9c bc 14 11 e1 bc 0e 87 5d 3d
       -0.026453093 -0.019146312 -0.027473964 0.054083876
000190 f5 f8 db 3a 40 ab f3 3b cd 27 fd 3c 94 17 9d bb
       0.0016782569 0.007436186 0.030902768 -0.0047940705
0001a0 51 73 7c 3d c8 88 45 3c a1 fc a8 3c 67 0a bd bc
       0.06163341 0.012056537 0.020628275 -0.02307625
0001b0 6e d6 a7 3b 3e 2a 6f 3d 90 3e 88 bc 31 e2 10 3d
       0.0051219976 0.058389895 -0.016631395 0.035371963
0001c0 56 5a 39 bd 3c 7e 67 bd 0d 14 37 3d dc 1f fb bc
       -0.045252167 -0.05651687 0.044696856 -0.03065484
0001d0 dd 5a 01 3c 3f 89 44 bd d0 b1 cb bb 4e a8 34 3d
       0.007895199 -0.04798245 -0.0062162653 0.04410582
0001e0 bc 40 52 bd 56 a8 46 bd 1a a5 9a 3c b6 c8 20 bd
       -0.051331267 -0.04850038 0.018877555 -0.039253913
0001f0 3f 2b 73 bd ff 75 04 bd ff c0 c2 bc 6f 7f 9f bc
       -0.059367415 -0.032339092 -0.023773668 -0.019469945
000200 6c 59 f5 bc 67 da b4 3c bc c5 67 3b 3f 5c 07 bd
       -0.029949866 0.022076799 0.0035365662 -0.033046957
000210 7b 26 0e 3d 38 00 02 bd ec 79 65 bd 98 aa 18 3d
       0.034704667 -0.03173849 -0.056024477 0.037272066
000220 dd 17 7b bd 8d e9 87 bc 01 d0 e4 bc 4c 25 6f 3d
       -0.061302055 -0.016590858 -0.027931215 0.05838518
000230 17 39 34 bc 5e 81 ca 3c d8 de 3f 3d 7c 30 65 3c
       -0.010999939 0.02471989 0.04684338 0.01398861
000240 d9 b7 7e 3d 33 d9 a4 3c 52 d4 a7 3c 2b 20 d6 bb
       0.06218705 0.0201231 0.020486984 -0.0065345964
000250 b7 8a ca bb a8 d6 9a 3c c4 74 50 bd b5 52 27 bd
       -0.006181087 0.018901184 -0.050892606 -0.04085036
000260 5a ce 6c bc cf 08 39 3d d0 21 da bc e9 a2 9a 3c
       -0.014453495 0.045174416 -0.026627451 0.01887651
000270 d0 7f 93 3b 1a ec 56 bd 4b ad 54 3d fe 83 6e 3d
       0.0045013204 -0.052471258 0.051923078 0.058231346
000280 73 48 4b 3d 20 52 78 3b 52 20 44 bc 83 04 2e 3d
       0.04962964 0.0037890747 -0.011970596 0.04248477
000290 b2 1a 26 bd f1 ea 1e bc 8f 42 a1 bb 8d 98 5b 3d
       -0.040552802 -0.009699569 -0.0049212645 0.05361228
0002a0 c3 a6 eb bb e0 bb 02 bd 53 65 f1 bc 44 86 14 3d
       -0.0071915104 -0.031917453 -0.02946726 0.03626086
0002b0 0e cc 7a 3c c7 4e 6c 3d c4 93 7b bd 2c bb 8c bc
       0.0153074395 0.057692315 -0.061420217 -0.017179094
0002c0 6f 46 0c bd 54 96 7b bd 70 24 5b 3d b6 83 22 bd
       -0.03424686 -0.06142266 0.053501546 -0.03967639
0002d0 a2 5b 64 3d 6d 90 e0 3b 1d f2 13 3d 74 39 7b bc
       0.05575145 0.0068531544 0.03611957 -0.015333522
0002e0 a7 1a 97 3a 78 1c 0f bd 19 78 4b 3a ba c9 4e 3d
       0.0011528329 -0.03493926 0.00077617314 0.05048535
0002f0 13 d4 2c 3d 41 7d 0c bc dc 84 de 3c f8 58 c7 bc
       0.042194437 -0.008574785 0.027162962 -0.024334416
000300 64 fa 23 3d d5 fe 9d bc 89 65 e4 3c c7 dc 84 bd
       0.040033713 -0.019286552 0.027880447 -0.064874224
000310 a6 b2 a2 bc b0 24 5a 3d 8d 88 bf bb 17 b5 46 3d
       -0.019860577 0.053257644 -0.0058451355 0.048512544
000320 b9 a3 67 bd 42 99 1c 3d e9 64 86 bd 73 68 ae bb
       -0.056552622 0.038232096 -0.06562216 -0.00532251
000330 ec ce 36 3d 7b 80 83 3d c4 ba ef bb 0d cc c0 3c
       0.04463093 0.0642099 -0.0073159654 0.023534799
000340 1c 4b 5c bd b4 37 80 bd 74 fc 89 bc c3 b8 cd bc
       -0.053782567 -0.062606245 -0.016844012 -0.025112515
000350 03 b6 be 3c 32 9b 88 3c 4b 60 3c bc 96 ff 33 3d
       0.02328015 0.016675565 -0.011497567 0.043944918
000360 b4 84 54 3d 6b ca 7e 3b 7b e4 ca 3b 7c d9 a2 bc
       0.051884368 0.0038877975 0.006191788 -0.019879095
000370 29 5f 1c 3d 0f f8 cd 3c 98 ab cd 3c b8 c0 06 bc
       0.03817669 0.025142698 0.025106236 -0.008224659
000380 48 7e e9 3c f8 03 1b 3c 73 9c 07 3c 4a bb 4a bd
       0.028502598 0.009461395 0.0082770465 -0.04949502
000390 1c d2 24 bd 44 66 91 3c 3d 0f 08 bd 3a fa 86 bc
       -0.04023944 0.01774896 -0.033217657 -0.01647674
0003a0 7c 0f e1 bc 2d f6 dc bc 89 6e e1 bc c8 53 43 3d
       -0.027473204 -0.026972855 -0.027518528 0.047687322
0003b0 50 6a ba bc e0 cb c5 3b f8 dc 20 3c 63 d7 14 bd
       -0.022755772 0.0060362667 0.009818308 -0.03633822
0003c0 c9 ae cc bc ea c5 d4 bc 73 27 46 bd cf 64 81 3b
       -0.024985688 -0.025973279 -0.048377465 0.003948785
0003d0 88 02 1a 3d 04 d0 b2 3c 71 34 65 3d 29 ff b3 3c
       0.03760007 0.021827705 0.055958215 0.021972256
0003e0 5c 75 b0 bc 43 bf a3 3c 5e b7 ae 3c 9c 1d 06 3d
       -0.021540336 0.019988662 0.02132767 0.03274308
0003f0 d3 e0 73 bd 8b b5 ea bc b9 3a c1 bc 1c 2a 2a bd
       -0.05954058 -0.02865102 -0.023587571 -0.041544065

fc3.bias f4 [256]
000000 c3 77 14 bd 61 a3 58 3d 20 08 25 3d 17 a1 62 bd
       -0.036247026 0.052890185 0.04029095 -0.05532941
000010 aa 50 71 3d 65 82 4e bd dd a8 c0 3c 63 b5 a2 3c
       0.058914818 -0.050417323 0.02351802 0.019861883
000020 1c f8 56 3d f0 41 11 3d 90 30 bf bc ea c0 27 bd
       0.05248271 0.035463274 -0.023338586 -0.04095546
000030 5b 5f 24 bd b4 b2 85 b9 02 10 13 3d 9c 61 48 3d
       -0.04013 -0.0002550088 0.035903938 0.048921213
000040 c3 be 6a 3d 00 50 eb 3b 2c 69 1a bd 71 60 87 3d
       0.05731083 0.0071811676 -0.037697956 0.066101916
000050 bb 50 27 bd 91 a2 77 bd d0 9c 5e 3d da 5d 77 bc
       -0.040848475 -0.06045777 0.054348767 -0.01509806
000060 a0 c7 9b bc 93 78 88 bc 5d 31 b1 bc d1 9d 8c bd
       -0.019016087 -0.016659057 -0.021629984 -0.068660386
000070 7c e3 ef bc a7 40 37 3d ee 65 d8 bc 9f a1 58 ba
       -0.029283278 0.04473939 -0.026415791 -0.00082638295
000080 a4 54 c1 3c 0f 46 33 bd f4 b2 09 3d 2c f2 8a bd
       0.02359993 -0.043767985 0.03361793 -0.06784472
000090 cc 6f 1c 3d af 57 ef 3c f8 06 6c bd 50 f5 5a bc
       0.038192555 0.029216615 -0.057623833 -0.013364151
0000a0 bf 08 64 bd ce 80 f9 bb 82 85 53 bc 8a 4c 0c bd
       -0.055672403 -0.0076142317 -0.012910249 -0.03425268
0000b0 be 76 25 3d 12 df e6 3c 4a 70 31 bd b0 39 9b bd
       0.040396444 0.02818254 -0.043319978 -0.075793624
0000c0 e3 0a 1c 3d b3 64 76 bd 28 5f b6 bc 85 60 08 3d
       0.03809632 -0.060154628 -0.02226217 0.033295173
0000d0 da 6a 09 3b b8 b3 2e 3d 41 88 df 3c 79 a9 ff bc
       0.002096823 0.042651862 0.02728665 -0.03120874
0000e0 80 2c 3e bc d9 24 ae bc 8d 96 9c bc cb e5 19 3d
       -0.011607289 -0.021257805 -0.019114757 0.037572663
0000f0 e7 c6 72 ba 1b a5 ce bb 14 f6 85 bd 04 54 68 bd
       -0.0009261206 -0.006306303 -0.06541076 -0.05672075
000100 52 14 b5 3c d2 54 95 3c 6d 86 d9 3c 2b 0e 7d bc
       0.022104416 0.018228922 0.026553357 -0.015445272
000110 0f da b5 3c 76 97 49 bd fb e5 52 bd 23 22 5e bd
       0.022198705 -0.04921671 -0.051488858 -0.054231774
000120 60 be 26 bd 63 9d 79 bc 2a 52 d8 3c ae ce 61 3d
       -0.0407089 -0.015235278 0.026406366 0.055128746
000130 49 05 f2 bc 9a d9 a8 3d 31 4c c4 bc 36 c4 3a 3d
       -0.029543536 0.08244629 -0.023962112 0.045597278
000140 66 7a 6b bb ea bf 9f 3b 55 03 80 bd 7f d8 63 3d
       -0.003593111 0.004875173 -0.062506355 0.05562639
000150 40 3b 3e 3c 7a c4 74 bd 48 67 57 3d 37 75 27 3d
       0.011610806 -0.059757687 0.05258873 0.04088327
000160 73 96 18 bd 63 e1 c0 3c 15 63 42 3d 7a 30 51 bd
       -0.037252855 0.023544973 0.047457773 -0.05107162
000170 21 04 19 3d 04 86 82 bd 00 70 f2 b9 74 71 d1 bc
       0.037357453 -0.06373218 -0.00046241283 -0.025566794
000180 74 5a 4e bd 98 70 d1 bc d6 d8 2b bd 79 b1 dc bb
       -0.05037923 -0.025566384 -0.041954838 -0.0067350236
000190 1f c0 89 3a 7d bc 41 bb 68 59 d4 3c e6 1a 5d bd
       0.0010509527 -0.002956181 0.025921538 -0.05398073
0001a0 ab 29 cf bc 11 9f 03 bd a3 83 86 b9 4a aa 48 bd
       -0.025288424 -0.03213412 -0.0002565655 -0.048990525
0001b0 6c f4 7b bd 0b 82 fb bc 3c 6f 5f 3d 53 78 8e bc
       -0.061512396 -0.030701658 0.05454944 -0.01739136
0001c0 34 75 52 bd 4f 26 50 3d 31 a8 e9 bc f8 12 10 bd
       -0.051381305 0.050817784 -0.028522583 -0.03517434
0001d0 95 fd 1a 3d b0 9d df bc c6 48 71 3d c4 aa b2 bc
       0.03783949 -0.027296871 0.058907293 -0.021809943
0001e0 b5 c5 5c 3d 2a 03 15 3d 53 d3 fd bc 12 f5 55 3d
       0.053899486 0.03637997 -0.030984556 0.05223567
0001f0 36 b9 7c 3d 6c 63 2c 3d 4c f0 90 3d 3d 1e 02 bd
       0.06170007 0.042087004 0.07077083 -0.03176712
000200 cf 9f 01 3d 10 f6 26 3d d6 ea 3a 3c 3f 81 1e bc
       0.031646546 0.040762007 0.011408528 -0.009674369
000210 f1 63 1e bc ac 9f 92 3d 1c 37 89 bc 28 b9 24 3d
       -0.009667383 0.07159361 -0.016749911 0.04021564
000220 d9 e6 5d 3c aa 2e f1 bc fb 13 80 b9 50 92 1d bd
       0.013543808 -0.029441196 -0.0002442895 -0.038469613
000230 f1 95 b4 3b 24 f8 81 bd a8 de aa bb 8c 71 72 bd
       0.0055110385 -0.06346157 -0.005214531 -0.059190318
000240 da b0 5d bd f9 68 29 3d 83 06 8e bc e1 80 83 3b
       -0.054123737 0.041359875 -0.01733709 0.0040131663
000250 2c d4 5b bd ee 62 58 3b e0 a1 2c 3c d1 c1 18 3d
       -0.05366914 0.003301795 0.010536641 0.037294213
000260 21 88 73 bd f8 c9 95 bb 1a 8c 4a 3c 8d 91 2e 3d
       -0.059455995 -0.0045711957 0.012362504 0.042619277
000270 d4 89 1f bd 00 75 0b bd 1e bd 15 3d 81 00 ba bc
       -0.038949803 -0.034047127 0.03655731 -0.022705318
000280 d6 22 99 bc dd 54 48 bd 4b 13 fb ba 1f 05 57 3c
       -0.018693369 -0.048909057 -0.001915553 0.01312378
000290 ea e3 ce bc 3b ae 55 3d 55 72 ed bc 92 03 29 bd
       -0.025255162 0.052168112 -0.028985182 -0.04126317
0002a0 86 40 26 3d 66 0e 57 3b fc 47 21 3d 56 19 b4 bd
       0.040588878 0.0032814979 0.03937529 -0.08793895
0002b0 30 75 60 3d 8c 2b 8c bd 50 70 80 3c da e1 38 bd
       0.05479926 -0.068442434 0.015678555 -0.045137264
0002c0 2c 1b 16 bd 2c 4c 64 bd 0e 1b a1 3d 16 fd 01 bc
       -0.036647007 -0.055736706 0.078664884 -0.007933876
0002d0 49 4e 86 bc 70 1e 15 3d 6b 4c 78 bc 7a 2c d0 bc
       -0.016394751 0.03640598 -0.015154938 -0.025411833
0002e0 b4 38 1e 3d e9 05 49 3d 41 7e 0a bd 63 31 3c 3d
       0.038628295 0.049077902 -0.03381181 0.045945536
0002f0 00 3b 82 bd c1 7d 4b 3d 3f 13 8b bc 37 25 80 bb
       -0.063589096 0.049680475 -0.01697695 -0.0039106864
000300 ca d1 1e bd de 19 40 bd 93 94 04 bd c2 ca 56 bd
       -0.03877429 -0.04689967 -0.032368254 -0.05243946
000310 3e f8 32 bd 4a e8 37 bd 93 59 78 bd 6d 43 6b bd
       -0.043693773 -0.044899262 -0.0606323 -0.05743735
000320 d9 c4 3b 3d d0 2c 3e bd 89 e0 80 3d 70 16 58 bc
       0.045842025 -0.046429455 0.06292827 -0.013188943
000330 27 ee 45 3c 18 d2 11 3d 5c c7 ac 3c c9 b7 05 3d
       0.012080706 0.03560075 0.021091156 0.032645974
000340 1c 0f 21 bd 33 59 c2 bc fb 49 fa 3c 99 c6 64 3d
       -0.03932105 -0.023724174 0.030552855 0.05585346
000350 03 a3 84 bc ab b6 24 bd b6 63 c1 3b 08 e9 f0 bc
       -0.016191011 -0.04021327 0.005901779 -0.029407993
000360 b6 f9 41 3c 75 1a 35 bd 51 87 1a 3b b6 83 62 bd
       0.011839321 -0.044214685 0.002357919 -0.05530139
000370 28 51 35 bd fa 5b 84 3d e8 37 8f 3d 92 e4 a2 3b
       -0.04426685 0.06462856 0.06993085 0.0049710954
000380 73 fd c4 bc 94 46 ad bb d4 29 26 3d b2 65 e0 3b
       -0.024046635 -0.0052879546 0.040567234 0.0068480605
000390 ff 63 76 3d da de 56 3d 08 7f b5 bc 75 bd 55 3d
       0.060153957 0.05245862 -0.0221553 0.052182633
0003a0 8a 02 d7 3c 98 a4 1b 3c c0 b6 8e 3c 86 28 5c bd
       0.026246328 0.009499691 0.017421126 -0.053749584
0003b0 02 61 de 3c 46 92 2d 3d f7 70 37 3d fc 26 17 3d
       0.027145866 0.042375825 0.044785466 0.036902413
0003c0 2f 07 9d 3b 9e ee a5 bb 93 c7 10 3d f1 fd 12 b7
       0.004792116 -0.005063846 0.03534658 -8.7614035e-06
0003d0 f8 57 2a bd 1f c3 1f 3b cd 78 19 bd 88 43 d5 3c
       -0.0415878 0.0024377776 -0.03746872 0.026033178
0003e0 5b 17 40 3b 7c 13 48 bd 9f b5 48 bb 87 e1 6b bd
       0.0029310796 -0.048846707 -0.0030625833 -0.057588127
0003f0 09 7d 89 bc 91 56 8f bc ad e9 4d bd de df 09 3d
       -0.016783254 -0.017497333 -0.05027168 0.033660762

action_out.weight f4 [2, 256]
000000 e1 bc 62 3d 15 35 0a 3d b3 91 27 3d b1 00 1d bd
       0.05535591 0.03374203 0.040910434 -0.038330738
000010 91 22 af 3c 16 9d 84 bc 9f 9c 24 bd 74 8a ec bc
       0.021378787 -0.016188186 -0.040188428 -0.028874613
000020 b4 21 4c 3d 1e 4a 00 3d 48 4f 31 bd 4b d3 bc 3b
       0.04983683 0.031320684 -0.0432885 0.005762493
000030 34 93 dd bc 1c f7 1c 3c c2 81 95 bb c6 fd 46 bb
       -0.027047731 0.0095804 -0.0045625875 -0.0030363663
000040 89 5d a8 ba 0c b0 d6 bc bc 47 4d bd a8 aa 6a 3c
       -0.0012845258 -0.026206993 -0.05011724 0.014322914
000050 51 c7 5f bb f4 48 74 bc 19 b4 44 3d a1 f2 35 3d
       -0.0034145901 -0.0149099715 0.048023317 0.044420842
000060 8a 5e 19 bd db c3 bb 3c 13 a4 20 bd 1a 17 91 3c
       -0.037443675 0.02292054 -0.039218973 0.017711211
000070 95 8e cb bb be 2b 31 3d 06 73 68 bc 3d 3f 9f 3b
       -0.0062120655 0.043254606 -0.01418758 0.0048598335
000080 77 72 35 bd c5 0f 83 3c 5a c0 10 3c 56 19 27 3d
       -0.044298615 0.01599873 0.008834923 0.040795647
000090 c1 d8 a3 3d 48 6d 04 3c 69 65 6a bc c1 e5 c9 bc
       0.08000327 0.008082695 -0.014306405 -0.024645688
0000a0 65 6c 34 bd 5f ac d5 3c 64 6a 20 bd d2 cf 13 3d
       -0.044048686 0.02608317 -0.039163962 0.036086865
0000b0 7c 38 1e bd 38 74 52 bd 0f 43 1f bd 6a 40 98 bc
       -0.038628086 -0.051380366 -0.03888231 -0.018585403
0000c0 55 41 0e bd 96 a2 6e bb de 1f c7 bc 63 5b 19 3d
       -0.034730274 -0.0036412827 -0.024307188 0.03744067
0000d0 95 ae 4b 3d 89 15 9d 3d 1e a5 23 bd 26 95 59 bd
       0.04972704 0.07670123 -0.03995239 -0.053120755
0000e0 4c 0a 4c bd 95 0c bf bc 1d bf 32 3d bd e3 18 bd
       -0.049814507 -0.02332143 0.04363929 -0.037326563
0000f0 20 99 b9 bc 11 a4 42 3c ba 73 3e bd 48 ee 9d 3c
       -0.022656024 0.011879937 -0.046497084 0.01927866
000100 f8 87 5c bc 68 ad ed bc 79 ae b1 3b fb 6c 3f bd
       -0.013460152 -0.02901335 0.00542241 -0.04673479
000110 e4 75 c4 bc d4 45 ae b9 bc 8d 1d bd 22 5d 45 3d
       -0.023981996 -0.00033239892 -0.038465247 0.04818452
000120 a5 44 59 3c 91 a6 24 3d d3 68 46 3d 93 d3 99 3d
       0.013260995 0.040197913 0.048439812 0.07511058
000130 04 37 59 3d d9 d8 af 3c 4b 90 80 3d 60 26 0d bd
       0.053030983 0.021465706 0.06277522 -0.034460425
000140 2c 9b 91 3c a7 8b 96 3b d3 bc a9 3c dc 35 40 3d
       0.017774187 0.0045942846 0.020719921 0.046926364
000150 b5 f9 ea bc a7 73 10 bd 77 fd 6a 3d 89 98 f9 3c
       -0.028683523 -0.035266545 0.05737063 0.030468242
000160 65 f2 0f 3d 3d 78 c1 bc 6f 17 53 3d 17 82 46 bd
       0.035143275 -0.023616904 0.05153602 -0.048463907
000170 ff f7 87 3d c0 af 39 3d f0 79 76 3c a2 bf c3 bb
       0.066390984 0.045333624 0.015043721 -0.005973772
000180 26 fc 27 bd a0 c6 29 3d ae e5 12 3d a2 d3 20 3d
       -0.041011952 0.04144919 0.03586357 0.03926433
000190 19 be 3b 3d 8b 0d 61 bd b0 d4 04 bd da 4f 8f 3c
       0.045835588 -0.054944556 -0.032429397 0.01749413
0001a0 97 0b 59 3c 31 a4 1a 3d 21 c4 91 3d dd 82 3d 3d
       0.013247392 0.03775424 0.07117487 0.04626738
0001b0 ae 18 99 3c aa 23 66 3d 77 81 33 3c 26 17 8f 3c
       0.018688526 0.056186356 0.01095616 0.017467093
0001c0 ae 6a 37 3d c4 26 59 bd 79 5f c2 3c ab fd 85 bc
       0.044779472 -0.053015485 0.023727166 -0.01635631
0001d0 14 33 c6 bc 32 f4 42 3d 4c e5 2c 3d f0 bf f6 3c
       -0.024194278 0.047596164 0.042210862 0.03012082
0001e0 a8 0a 5b 3d dd a6 17 bd f4 f2 47 bd d0 6e 66 3c
       0.05347696 -0.037024368 -0.048815683 0.014064506
0001f0 48 dc b8 3b c9 26 a9 bc 1b c7 75 3d 55 81 20 bc
       0.005641494 -0.020648377 0.060004335 -0.00979646
000200 b7 7d 83 3d 79 9d ba bb 3b 78 a2 bc 68 43 b1 bc
       0.064204626 -0.0056950417 -0.019832721 -0.021638587
000210 46 c6 19 bd a6 55 93 3d 20 df 6e bb 85 ea 4c 3d
       -0.037542604 0.071940705 -0.003644891 0.050028343
000220 d3 14 92 bb f3 67 f9 3c 73 ab 2a bc b8 c8 a5 bb
       -0.004458049 0.030445075 -0.010416853 -0.005059328
000230 0b 83 dc bc 8c 07 5d ba ce e4 e0 bb 22 2d 22 bd
       -0.026917955 -0.00084316055 -0.006863213 -0.039593823
000240 09 06 cd bb 42 e3 d9 bc 0e 6d 70 bd 88 66 45 bd
       -0.006256823 -0.026597623 -0.058697753 -0.048193485
000250 e3 c3 47 3d 60 b6 1c bc e0 6c 38 3d 10 47 b0 3c
       0.048770797 -0.009564966 0.045025706 0.02151826
000260 04 14 5c bb de 63 a1 3d 50 cd a8 3c 86 a4 89 3d
       -0.0033581266 0.07880376 0.020605713 0.067208335
000270 f4 e3 ba bc c4 56 50 bd d8 99 8f bc 4a 93 1f bc
       -0.022813775 -0.050863996 -0.017529413 -0.009739706
000280 e5 23 4e bd 2c 0f 2d bc 7a b7 05 3d a0 7a 2f 3c
       -0.0503272 -0.010562699 0.03264568 0.010710388
000290 48 ca 56 bc e9 2c 41 bd b3 da 6b bd b3 81 86 3d
       -0.013109751 -0.04716197 -0.057581615 0.06567707
0002a0 e0 e7 da bc f1 38 29 bd c7 36 0b bc ef 53 d9 3a
       -0.026721895 -0.04131407 -0.008496947 0.00165808
0002b0 9d 59 92 bb e0 3e 4b bd 95 cc 16 3d 5a cd 32 bd
       -0.004466249 -0.04962051 0.0368162 -0.04365287
0002c0 54 22 37 bd 7a b5 24 bd fa e5 88 3d 74 4c 8d 3c
       -0.044710472 -0.040212132 0.066844895 0.01724837
0002d0 a0 52 71 bc 0a fd f9 bc 5c 68 23 bd 2d 55 45 bd
       -0.014729172 -0.030516166 -0.039894447 -0.048176933
0002e0 4e d2 9a 3b c9 0b 3b bd 81 2c a2 bb d7 1a da bc
       0.0047247773 -0.045665536 -0.004949153 -0.026624126
0002f0 a6 f0 c8 bb e7 d9 b5 bc dc ad 09 3d 01 f3 ed bc
       -0.006132203 -0.02219863 0.03361307 -0.029046537
000300 b7 8a 2c 3d 77 8f ed 3c 61 42 a6 3c 2d eb bd bc
       0.042124476 0.028999073 0.020295324 -0.02318343
000310 84 1a e1 bc 72 ec 06 bd 67 e7 c1 bc 14 fe 0a 3d
       -0.027478464 -0.032940336 -0.023669912 0.033933714
000320 62 8f d1 b9 87 37 87 bc 4e 39 84 3d 9c fd d0 3c
       -0.00039970415 -0.01650597 0.064562425 0.025511555
000330 e6 20 53 bd ce 8c 5b 3d 60 72 24 bd 08 a8 59 bb
       -0.051545046 0.05360108 -0.04014814 -0.0033211727
000340 ea a6 52 bd 2b d9 fe bc 6b 4c 25 bd 19 b4 0f bd
       -0.051428713 -0.031109413 -0.04035608 -0.035083864
000350 ad 92 62 ba 19 80 8e 3c 1d 64 1a bd 16 6b 39 3d
       -0.0008643072 0.017395066 -0.03769313 0.04526814
000360 a4 d1 3d bb 1f f7 e0 bb ce 7b e3 3c a3 bc b5 bc
       -0.0028964067 -0.0068653966 0.027768996 -0.022184676
000370 36 ea be bc 04 c9 11 3c 7b 55 81 3d a9 89 42 3c
       -0.02330504 0.0088980235 0.06315132 0.011873641
000380 28 b8 56 bd 8d 4a 37 3d 7e 2b 5b bc 6e 09 c4 bb
       -0.05242172 0.04474883 -0.013377069 -0.0059825694
000390 ec 21 dc bc e9 6c 2a bc 9c 20 ee bc e6 99 26 3d
       -0.026871644 -0.010401943 -0.029068284 0.040674113
0003a0 17 35 4f 3b 80 5f 62 3d 78 52 20 3d c4 1b d3 bc
       0.0031617337 0.055266857 0.03914115 -0.025770076
0003b0 e8 37 46 3d 48 24 a6 bc 71 ee a2 3c 53 e0 a8 3d
       0.04839316 -0.020280972 0.019889088 0.082459114
0003c0 e7 bb a4 bc 32 c6 27 3d f7 0c ff bc 47 7a 03 bc
       -0.02010913 0.0409605 -0.031134112 -0.008024759
0003d0 8d eb ba bc 85 e6 9c bc d2 f0 db bb 6a 63 15 bd
       -0.022817397 -0.019152889 -0.0067120576 -0.03647176
0003e0 e8 c0 05 bd 9c 81 58 3d 1c 6a 4f bb e0 0f cd bc
       -0.032654673 0.05285798 -0.003164894 -0.025031984
0003f0 75 14 89 3c 00 84 d4 3c 67 96 20 3d da 38 2b 3d
       0.016733387 0.025941849 0.039205935 0.041802265

action_out.bias f4 [2]
000000 23 d0 a6 bc 27 3e c2 bc
       -0.02036292 -0.023711277
