teams/psjw2/ddpg_agent_training/trained_models/model/model.pt (torch, 634991 bytes, 8 tensors)

fc1.weight f4 [256, 99]
0	0x3d3ded0a	0.046368636
1	0xbcee7fd0	-0.02911368
2	0x3c011ab8	0.007879905
3	0xbc0c29d1	-0.008554892
4	0xbdc43c9c	-0.09581873
5	0xbc3b2e82	-0.011424663
6	0xbddce2c6	-0.10785441
7	0xbcff8d11	-0.031195195
8	0x3db7627d	0.08954332
9	0xbdd862fa	-0.10565753
10	0x3dd7a007	0.1052857
11	0x3bfa384b	0.007636105
12	0xbdd00ad4	-0.10158315
13	0xbdd8a8e1	-0.10579086
14	0xbc74c593	-0.0149396835
15	0x3dba0f8b	0.09084996
16	0xbd6430a8	-0.055710465
17	0xbd58a7ae	-0.052894287
18	0x3dcc13c9	0.09964711
19	0x3dd9d7b2	0.10636844
20	0xbccc84c7	-0.024965657
21	0x3d41ed9b	0.04734574
22	0x3cca7906	0.024715912
23	0x3dbca8db	0.09211894
24	0x3d308367	0.043094065
25	0xbd9df0ce	-0.077119455
26	0xbd2e7034	-0.042587474
27	0xbc974cad	-0.018469179
28	0xbda3ad7d	-0.07992075
29	0x3d08c07c	0.033386692
30	0x3d3b9679	0.0457978
31	0xbd96f3fa	-0.073707536
32	0x3ca2732f	0.019830314
33	0xbdea636f	-0.11444747
34	0x3dd20ce1	0.10256363
35	0xbdab70e6	-0.08371143
36	0x3d4784ca	0.048710622
37	0x3d8ddb5f	0.06926607
38	0x3ce519a3	0.027966326
39	0x3d3033ea	0.04301826
40	0x3c49dea6	0.01232115
41	0x3c56fb92	0.0131215025
42	0xbda83333	-0.082128905
43	0x3b6fcfd1	0.0036592374
44	0x3c767827	0.015043295
45	0x3c9d677a	0.01921438
46	0x3c376e7e	0.011195777
47	0xbcd1e059	-0.025619673
48	0x3d2053dd	0.03914248
49	0xbd236012	-0.03988654
50	0xbdb20e57	-0.08694141
51	0xbd2a4105	-0.041565914
52	0xbd6ff2b8	-0.058581084
53	0xbba8107a	-0.0051289173
54	0x3d8efa86	0.06981377
55	0x3cd52408	0.026018158
56	0x3d6de5dc	0.05808054
57	0x3d656cf0	0.056012094
58	0x3daa5def	0.08318698
59	0xbdaf8779	-0.08570761
60	0xbc64b1d2	-0.013958411
61	0x3dc55998	0.09636229
62	0x3dc682b9	0.09692902
63	0xbd5265f1	-0.05136675
64	0xbbf7dcec	-0.0075641777
65	0x3db2e44a	0.08734949
66	0xbd6cfbb5	-0.057857234
67	0x3d66c6fa	0.056342103
68	0xbc27c7c7	-0.010240502
69	0xbc60dc47	-0.013724393
70	0xbc7fe92f	-0.01561956
71	0x3d129ca1	0.035793904
72	0xbca90b60	-0.020635307
73	0x3c80c9cf	0.01572123
74	0xbd072b53	-0.0330003
75	0x3d64430d	0.055728007
76	0xbc1e46ed	-0.009660465
77	0x3d5a8e08	0.053358108
78	0x3dd3d910	0.10344136
79	0xbcfa674f	-0.03056684
80	0xbd19b056	-0.037521683
81	0xbd95d2ec	-0.07315621
82	0xbcb114b8	-0.021616325
83	0xbdac37e6	-0.08409099
84	0xbd2174ca	-0.03941802
85	0xbcff95e3	-0.031199401
86	0x3cefd940	0.029278398
87	0xbda5df69	-0.08099253
88	0x3d6f73cd	0.058460046
89	0x3cba3938	0.022732362
90	0x3d9609ec	0.07326111
91	0x3cc3c625	0.023898194
92	0x3c525715	0.012838145
93	0x3dbcfd83	0.09228041
94	0xbd0caa2d	-0.03434198
95	0x3d9e735b	0.07736846
96	0xbd4cc14c	-0.04998903
97	0xbd0cb9db	-0.034356933
98	0x3bcfed58	0.0063454323
99	0x3d5f735a	0.054553367
100	0x3db1ebd1	0.086875565
101	0xbd8b170b	-0.067915045
102	0xbd26f495	-0.040760595
103	0x3cea26c1	0.028582932
104	0x3c073b7e	0.00825393
105	0xbbdf31c8	-0.0068113543
106	0x3d159a81	0.0365243
107	0x3dbc58be	0.09196614
108	0xbcdd7b0a	-0.027036209
109	0xbdb51c29	-0.08843262
110	0xbd52d877	-0.05147597
111	0x3d18b884	0.037285343
112	0xbc13a72f	-0.009012028
113	0x38e32bb0	0.00010832341
114	0x3d28291f	0.04105484
115	0xbd96be79	-0.073605485
116	0xbcc18110	-0.023621112
117	0xbcadbe34	-0.02120886
118	0x3c42876d	0.011873108
119	0x3d314022	0.043274052
120	0xbd60d498	-0.054890245
121	0xbd846ad8	-0.06465691
122	0x3ca9156b	0.020640096
123	0x3a152ae6	0.00056902913
124	0x3d769410	0.060199797
125	0x3dbaae2b	0.09115251
126	0x3dc6230d	0.09674654
127	0x3d404327	0.04693904
128	0xbd2dd501	-0.042439464
129	0xbd483ade	-0.048884265
130	0x3dbbd856	0.09172122
131	0xbd9b4064	-0.07580641
132	0xbda10a8b	-0.07863339
133	0xbd734fda	-0.059402324
134	0xbd108bc3	-0.035289537
135	0x3d4c1954	0.049828842
136	0xbd9382ce	-0.072026834
137	0xbdab253b	-0.083567105
138	0x3d835a7a	0.064137414
139	0xbd1deafd	-0.03855418
140	0x3d3df394	0.046374872
141	0xbddd4190	-0.10803521
142	0x3d20e990	0.039285243
143	0xbda98dba	-0.08278985
144	0xbd04c564	-0.03241481
145	0xbdcd459f	-0.10023045
146	0xbb92408d	-0.0044632615
147	0xbb8c6654	-0.0042846594
148	0x3d84414d	0.06457768
149	0x3d7ed13b	0.062211256
150	0xbd8437eb	-0.06455978
151	0x3d780302	0.060549743
152	0x3d94fc6e	0.0727471
153	0xbc5a158d	-0.013310802
154	0xbbbcf24c	-0.0057661887
155	0x3dd51fd6	0.10406463
156	0x3c2d1d45	0.01056606
157	0x3da0f031	0.07858313
158	0x3b43cc4d	0.0029876411
159	0x3cec9b48	0.028882638
160	0x3dbb602f	0.09149205
161	0xbc58030c	-0.01318432
162	0xbcc13979	-0.023586975
163	0x3d0eec3e	0.034893267
164	0x3d8af70e	0.06785403
165	0xbd81a0c3	-0.06329491
166	0xbd502ad1	-0.050822083
167	0xbc9db93a	-0.019253362
168	0xbd9c8f6a	-0.076445416
169	0x3d5d367c	0.05400704
170	0xbd7bb32e	-0.061450176
171	0x3d93a3d7	0.07208984
172	0xbca3ced2	-0.01999608
173	0xbdc5436b	-0.096319996
174	0xbd29e1d7	-0.041475143
175	0xbd5bafd8	-0.053634495
176	0xbbdafb52	-0.0066827917
177	0xbce081e7	-0.027405692
178	0x3c192602	0.009347441
179	0x3cbdad43	0.023153907
180	0x3d96339c	0.073340625
181	0xbdb5ca6b	-0.08876499
182	0xbda432ad	-0.08017478
183	0x3d9fca33	0.07802238
184	0x3d3aadea	0.045576014
185	0x3cac735c	0.021051101
186	0x3db28b14	0.08717933
187	0xbd418cfb	-0.04725359
188	0xbd55be0a	-0.05218319
189	0xbd7d4a31	-0.061838333
190	0xbd72fba2	-0.059322007
191	0xbd3d9b4e	-0.04629069
192	0xbd173477	-0.03691527
193	0x3dbc87d9	0.092055984
194	0xbcc6c2ae	-0.024262752
195	0x3dd79840	0.10527086
196	0x3d617f88	0.055053264
197	0x3cb1ff52	0.021728192
198	0x3dc10e0c	0.09426507
199	0xbcde420d	-0.027131105
200	0xbc70cf57	-0.014697871
201	0x3d97cd11	0.0741216
202	0xbd9a5ff8	-0.07537836
203	0xbd95586e	-0.07292257
204	0x3d6d15f0	0.05788225
205	0xbd4cc839	-0.049995635
206	0x3dc50070	0.09619224
207	0x3d710798	0.058845133
208	0x3d916f79	0.0710134
209	0xbc4618f2	-0.012090908
210	0xbdbc5255	-0.09195391
211	0x3bd5f451	0.006529369
212	0xbc614ecb	-0.013751696
213	0xbd8df77a	-0.06931968
214	0xbd1c7cd7	-0.038204994
215	0xbd8994b1	-0.06717814
216	0x3d94e8aa	0.0727094
217	0x3dd2aa2d	0.10286365
218	0x3a076165	0.0005164354
219	0xbd9ed345	-0.0775514
220	0xbd76a790	-0.060218394
221	0xbd022ad3	-0.03177912
222	0x3cac3aa1	0.02102405
223	0x3d9a8f82	0.07546903
224	0xbc9c66a5	-0.019091913
225	0xbd24b8e8	-0.040215403
226	0x3d095286	0.033525966
227	0x3d66f3af	0.05638474
228	0xbd98e031	-0.07464636
229	0x3d8e61df	0.06952261
230	0x3d0f940c	0.035053298
231	0x3dae155a	0.08500166
232	0x3dd79d7c	0.10528085
233	0xbda68deb	-0.081325375
234	0xbda955d0	-0.082683206
235	0xbd58dc1f	-0.0529443
236	0xbc20d9ec	-0.009817582
237	0xbda89f88	-0.08233553
238	0xbd684610	-0.05670744
239	0x3d2cd447	0.04219463
240	0x3c578622	0.013154538
241	0x3cfa7d58	0.030577347
242	0xbcc37184	-0.02385784
243	0x3d9124dc	0.070871085
244	0x3d6f18e0	0.058373332
245	0xbcde0594	-0.02710227
246	0xbd87d3b7	-0.06632178
247	0x3dab4de1	0.083644636
248	0xbd44506f	-0.04792827
249	0xbb64c7e4	-0.0034909183
250	0xbde40ae8	-0.11134893
251	0x3d224d18	0.039624304
252	0x3d8bf502	0.06833841
253	0x3d5c0af3	0.05372138
254	0xbdad9ae7	-0.08476811
255	0x3bd0f43d	0.0063767717

fc1.bias f4 [256]
0	0x3bd6c0f6	0.0065537645
1	0x3d7ca458	0.061680168
2	0x3d0ca190	0.034333766
3	0x3bb8134b	0.0056175343
4	0x3d658770	0.056037366
5	0x3d35348b	0.044239562
6	0xba81ed9a	-0.000991273
7	0x3dea48a9	0.1143964
8	0x3df14db3	0.11782398
9	0xbc8303b5	-0.015992979
10	0x3dbdffbd	0.09277294
11	0x3d164e33	0.03669567
12	0xbd98e85d	-0.07466195
13	0x3dbd5380	0.09244442
14	0x3de6a141	0.112612255
15	0x3dc5fbb9	0.09667153
16	0xbd8c0c9c	-0.068383425
17	0x3dbd606b	0.09246906
18	0xbb19cc26	-0.002346763
19	0x3dc739b2	0.097278014
20	0xbd9d81b2	-0.07690753
21	0x3cd30332	0.02575836
22	0x3cbe42a3	0.023225134
23	0xbdb15696	-0.08659093
24	0x3da4c598	0.080455005
25	0xbd2c50cf	-0.042069253
26	0x3c31caaa	0.0108515415
27	0x3bf91bde	0.007602199
28	0x3dc9b4a7	0.0984891
29	0x3c4d2808	0.012521751
30	0xbda431a6	-0.08017282
31	0x3d4ba7de	0.049720638
32	0x3c32d6af	0.010915442
33	0xbd83754d	-0.06418858
34	0x3c127a2b	0.00894026
35	0xbdb4c8bb	-0.08827349
36	0x3d1a8a09	0.037729297
37	0x3bfa660e	0.0076415604
38	0xbbac6127	-0.005260605
39	0x3a7a7dca	0.0009555487
40	0x3d807bd3	0.062736176
41	0x3d18bf65	0.037291903
42	0xbda27e7f	-0.079342835
43	0xbca1efa5	-0.019767592
44	0x3d0b02e8	0.03393832
45	0x3dc75cb4	0.097344786
46	0x3dd3795d	0.103258826
47	0x3c41dd56	0.011832556
48	0xbd38e4b3	-0.04513998
49	0x3cd8723b	0.026421657
50	0x3cb0c6ec	0.021579228
51	0x3d23f7eb	0.040031355
52	0xbd7f5f8f	-0.06234699
53	0xbb861f2d	-0.004093072
54	0xbdbd1384	-0.09232238
55	0xbcb85b52	-0.022504482
56	0xbd53e9fc	-0.051736817
57	0x3d2739d2	0.040826626
58	0xbc816fca	-0.015800375
59	0xbd8c6919	-0.06855983
60	0x3ceed572	0.029154513
61	0xbd84ab48	-0.06477982
62	0xbd4732ee	-0.048632555
63	0xbda75ba2	-0.081717744
64	0x3d665b4e	0.05623942
65	0xbd7cedcd	-0.061750222
66	0x3d43693f	0.047707792
67	0x3dfd9a60	0.1238296
68	0xbdb4265b	-0.08796378
69	0x3d26c832	0.040718265
70	0x3d021478	0.0317578
71	0x3d788ea1	0.060682897
72	0xbd035801	-0.03206635
73	0x3ddc4851	0.10755981
74	0x3dc82512	0.097726956
75	0x3c991189	0.01868512
76	0x3d348fe3	0.044082534
77	0x3cd503c0	0.026002765
78	0xbcfd8472	-0.030946944
79	0x3c866e47	0.016410006
80	0x3dca9e79	0.098935075
81	0x3c535c53	0.01290043
82	0x3d8f7fd5	0.07006804
83	0x3dd6e551	0.104929574
84	0x3d8ec3f2	0.06970967
85	0xbc93b649	-0.018031256
86	0x3d71022f	0.058839973
87	0x3d638b1c	0.055552587
88	0x3c182fd1	0.009288744
89	0x3def5f53	0.116881035
90	0x3bd8b64d	0.006613529
91	0x3d5bc91f	0.0536586
92	0xbdc2b115	-0.09506432
93	0x3c30428e	0.010758055
94	0x3d75d9cf	0.06002217
95	0x3d5110aa	0.051041283
96	0xbd2341d5	-0.039857704
97	0x3d396d30	0.045270145
98	0xbcd8fa59	-0.026486563
99	0xbc55e866	-0.013055896
100	0xbc908ebf	-0.017646192
101	0x3dc25500	0.09488869
102	0x3d3339a0	0.043756127
103	0x3dd4ad24	0.103845865
104	0xbda9fc0f	-0.083000295
105	0x3d314e86	0.043287776
106	0x3db8f4e5	0.09031085
107	0x3d3fd206	0.046831153
108	0x3dec3ed1	0.11535419
109	0x3db56952	0.08857979
110	0xbc5ad3bf	-0.013356148
111	0x3d49ceb1	0.049269382
112	0xbd69afac	-0.0570523
113	0x3dbb21f1	0.09137333
114	0xbb7e4ca5	-0.0038803008
115	0xbd9b0480	-0.07569218
116	0xbc7d903e	-0.015476285
117	0x3d60d3fd	0.054889668
118	0x3cc4ecee	0.024038758
119	0xbd9e9522	-0.077432886
120	0x3d89a1cd	0.06720314
121	0xbdf4595c	-0.119311064
122	0xbd851e43	-0.064999126
123	0x3dc4e5a6	0.096141145
124	0x3dca11b4	0.09866658
125	0x3daa151e	0.08304809
126	0xbd00e105	-0.031464595
127	0x3d63cbe2	0.05561436
128	0x3dabe733	0.08393707
129	0x3da06d57	0.07833355
130	0xbcd2bc7e	-0.025724646
131	0xbb3f9527	-0.0029233189
132	0x3dc2a3d5	0.09503905
133	0xbd43e730	-0.0478279
134	0xbd0637c7	-0.032768037
135	0xbdb52852	-0.08845581
136	0xbd10814e	-0.035279565
137	0x3d1b0e34	0.037855342
138	0x3d293463	0.041309725
139	0x3dcf77f8	0.10130304
140	0x3da60f16	0.08108346
141	0xbd7cdc62	-0.06173361
142	0xbd951aa1	-0.0728047
143	0xbcf4e2e4	-0.029893346
144	0x3ce1de75	0.027571896
145	0xbc04ec6d	-0.008113009
146	0x3b7cfdaa	0.0038603344
147	0x3c1b156d	0.0094655575
148	0xbd971ac2	-0.073781505
149	0xbd117eeb	-0.03552143
150	0x3d3c53db	0.04597841
151	0xbd3ef92b	-0.046624344
152	0x3cd789c8	0.026310816
153	0xbc8671b3	-0.016411638
154	0x3d8703ea	0.065925434
155	0x3d8b6f3b	0.06808325
156	0x3b4389bc	0.0029836735
157	0xbdbd5372	-0.092444316
158	0x3dda63f2	0.10663594
159	0x3d322615	0.04349335
160	0xbcad8c89	-0.021185176
161	0xbb3989f0	-0.0028310977
162	0xbc872ef0	-0.016501874
163	0xbd7e3173	-0.062058877
164	0x3d16e5b4	0.036840156
165	0x3dabcb5a	0.083883956
166	0x3a87e31c	0.0010367366
167	0x3dd55572	0.10416688
168	0x3d80fc9b	0.06298181
169	0xbd9a666f	-0.07539069
170	0x3dd837e6	0.10557537
171	0x3cd8b59a	0.026453782
172	0x3d73d964	0.05953349
173	0xbd8f953d	-0.07010887
174	0xbd880329	-0.06641228
175	0xbd01ee54	-0.031721428
176	0x3ccdb5bc	0.025111072
177	0xbd10a693	-0.035315108
178	0xbd101c70	-0.03518337
179	0xbd1460f0	-0.03622526
180	0x3dbe8bb2	0.093039885
181	0xbda7b482	-0.08188726
182	0xbd72d79a	-0.059287645
183	0xbd73d53f	-0.05952954
184	0xbdac3535	-0.08408586
185	0x3bda0dbc	0.0066544693
186	0xbae8a129	-0.0017748225
187	0x3d440491	0.047855917
188	0xbdb0ad62	-0.0862682
189	0x3dd71f6b	0.105040394
190	0x3ca6209a	0.020279218
191	0xbd88d1c3	-0.06680634
192	0x3dca253a	0.09870382
193	0xbdc08e32	-0.094021216
194	0xbdafbd55	-0.08581034
195	0xbdcd35aa	-0.10020001
196	0x3ca89f8d	0.020583892
197	0x3d83c7d7	0.06434601
198	0x3cffb3d8	0.031213686
199	0xbd24b50c	-0.040211722
200	0x3d8aee9d	0.06783793
201	0xbc33a3c8	-0.010964341
202	0x3d8169b7	0.06318992
203	0x3be6aa8e	0.0070393747
204	0x3da93a99	0.0826313
205	0xbce2956c	-0.02765914
206	0x3d1a999e	0.037744157
207	0x3d2f8699	0.04285297
208	0xbd87d6f3	-0.06632795
209	0xbd59e5c3	-0.053197633
210	0xbd8190d8	-0.06326455
211	0x3d67a91a	0.056557752
212	0xbcc0a936	-0.023518186
213	0xbddc68ad	-0.10762153
214	0xbcb4e42a	-0.022081453
215	0xbc812da3	-0.015768832
216	0x3dc0f2a9	0.09421284
217	0x3d99ad75	0.075037874
218	0xbd96fd0d	-0.07372484
219	0x3d6dec91	0.058086935
220	0xbdee77b8	-0.11643928
221	0x3da85bef	0.0822066
222	0xbbfeb0ce	-0.0077725416
223	0x3d5423d4	0.05179198
224	0x3cb7a11e	0.022415694
225	0x3dc6db67	0.097098164
226	0x37ac7708	2.0559426e-05
227	0x3bf29990	0.00740356
228	0xbcbb0d70	-0.022833556
229	0x3d7a5751	0.061118428
230	0x3d818a48	0.06325203
231	0xbd6341d7	-0.05548271
232	0xbdb1ca30	-0.08681142
233	0xbcf5b8f9	-0.029995428
234	0x3cbde5f9	0.023180949
235	0x3d8faf36	0.07015841
236	0x3daffe6c	0.08593449
237	0xbd48c865	-0.049019236
238	0xbd000721	-0.0312568
239	0xbd8264db	-0.06366893
240	0x3d2cc9ff	0.042184826
241	0x3c650426	0.01397804
242	0x3d27101a	0.04078684
243	0x3da4b586	0.08042435
244	0xb912ffd2	-0.00014018946
245	0x3dcfc2ef	0.101446025
246	0xbde2c9cf	-0.11073648
247	0x3bb34421	0.005470768
248	0x3de5cc13	0.11220565
249	0xbd32775c	-0.04357086
250	0x3d1b1597	0.037862387
251	0xbd2bf559	-0.04198203
252	0x3c5e4271	0.013565646
253	0xbb83f503	-0.0040270104
254	0x3daa0b5d	0.083029486
255	0xbcf541d5	-0.029938618

fc2.weight f4 [256, 256]
0	0xbbfb0358	-0.0076603107
1	0xbd1824ec	-0.037144586
2	0x3a3817ae	0.00070225715
3	0x3c021aff	0.007941007
4	0x3da29fd9	0.07940645
5	0xbc11e049	-0.008903571
6	0xbc7c5b4b	-0.015402625
7	0x3d2997e8	0.041404635
8	0x3d050714	0.032477453
9	0xbd67b7dc	-0.056571826
10	0x3d7d1f56	0.061797462
11	0xbd11ae1b	-0.03556643
12	0x3bc9044e	0.0061345464
13	0xbc6ec7cb	-0.014574002
14	0xbcc1fae9	-0.023679214
15	0xbbbf7af7	-0.005843516
16	0x3c67e34f	0.014153316
17	0xbd0d18e5	-0.03444757
18	0xbd3a20ac	-0.045441315
19	0xbccb825e	-0.024842437
20	0x3bd5178c	0.006503051
21	0xbc677a59	-0.014128291
22	0xbcd5c45a	-0.026094604
23	0xba8ddd6b	-0.0010823434
24	0x3ce75707	0.02823974
25	0xbd846519	-0.06464595
26	0x3d59888c	0.053108737
27	0xbc4871ac	-0.012234133
28	0x3d86e5b7	0.065867834
29	0x3d8a3dac	0.06750044
30	0x3cca6bd0	0.024709612
31	0x3b1d72c0	0.0024024695
32	0x3d3d9f5b	0.04629455
33	0xbca10aa4	-0.019658394
34	0x3cc6eeb7	0.02428375
35	0xbacaae93	-0.0015463404
36	0xbcf157f8	-0.029460892
37	0x3c83b04e	0.01607528
38	0x3cf342d3	0.02969495
39	0x3d2b6836	0.04184743
40	0xbd381521	-0.044942025
41	0xbcd1ebe7	-0.025625182
42	0xbd755668	-0.059896857
43	0x3d55b50d	0.052174617
44	0xbc7a8e3d	-0.015292701
45	0x3d42c656	0.04755243
46	0xbd23725e	-0.03990399
47	0xbae9ec2e	-0.0017846876
48	0x3c3c6239	0.0114980275
49	0x3c177642	0.009244503
50	0x3d4bda76	0.049768887
51	0xbd200021	-0.039062623
52	0x3c35942e	0.011082692
53	0xbd15572e	-0.036460094
54	0x3cb89398	0.022531316
55	0xbc277490	-0.010220662
56	0xbcff32f4	-0.031152226
57	0x3d58d954	0.052941635
58	0xbd5a094a	-0.053231515
59	0x3d888344	0.06665662
60	0x3c8c76ed	0.017146552
61	0x3da0132c	0.07816157
62	0x3d81ebc7	0.06343799
63	0xbb397bb6	-0.0028302497
64	0x3d7a010b	0.06103615
65	0xbd1423b6	-0.03616687
66	0xbc1730be	-0.00922793
67	0x3c48fb94	0.012267012
68	0x3d81faf4	0.06346694
69	0x3cf3623d	0.02970993
70	0xbc698dc8	-0.014254995
71	0xbd492f1f	-0.049117204
72	0x3ccaaf18	0.024741694
73	0xbd52e863	-0.051491152
74	0x3d65106b	0.05592386
75	0x3d59702e	0.0530855
76	0xbd2ce3e3	-0.042209517
77	0xbc2c65a1	-0.010522277
78	0xbcecc07f	-0.028900383
79	0xbaeecc5c	-0.0018218863
80	0x3d3c0c89	0.045910392
81	0x3caa7283	0.020806557
82	0x3d2a5e1b	0.041593652
83	0x3c7ccd1a	0.015429759
84	0xb9932f11	-0.00028073092
85	0x3c4e227c	0.012581464
86	0x3d78ecf4	0.06077285
87	0x3d908004	0.07055667
88	0xbd706bfe	-0.05869674
89	0xbd12f448	-0.035877496
90	0xbbde771f	-0.0067891027
91	0xbd9a401e	-0.07531761
92	0x3d89d8f6	0.06730835
93	0xbd2a9ff1	-0.04165644
94	0x3d244e52	0.040113755
95	0xbd5014d5	-0.050801117
96	0x3d2d4c76	0.042309247
97	0x3d9c737a	0.07639213
98	0xbd268a24	-0.040659085
99	0x3d84b87f	0.06480502
100	0x3d106885	0.035255928
101	0x3b95c5a6	0.0045706807
102	0xbd0ab234	-0.033861354
103	0xbd37f952	-0.044915505
104	0x3c0bdcc2	0.0085365195
105	0xbbb5c69d	-0.005547358
106	0xbaa0b7a0	-0.0012261756
107	0x3d537488	0.051624805
108	0xbc9ef12a	-0.019402105
109	0x3d840f10	0.064481854
110	0x3d3ca3a9	0.046054516
111	0x3cc0f324	0.023553438
112	0x39d6f610	0.00041000592
113	0x3d240309	0.040041957
114	0xbd5bde37	-0.053678717
115	0xbd7ceb87	-0.061748054
116	0x3d7ed33a	0.06221316
117	0x3d6095be	0.054830305
118	0xbcffc204	-0.031220444
119	0x3d060677	0.03272101
120	0xbd6c123a	-0.05763457
121	0xbd44c05a	-0.048035003
122	0x3cb4b6a6	0.02205975
123	0xbd08efa2	-0.033431657
124	0x3da805b6	0.08204214
125	0x3cd2bade	0.02572387
126	0x3ccc1a24	0.024914809
127	0x3a0925c0	0.00052317604
128	0x3cd8d64c	0.026469372
129	0xbd8cc22f	-0.06872975
130	0x3cf0eb44	0.029409058
131	0x3be6bac2	0.0070413062
132	0xbd3975ad	-0.04527824
133	0x3d3f1064	0.04664649
134	0x3d0e5257	0.034746494
135	0x3d5ab60a	0.053396262
136	0xbd2d94a3	-0.04237808
137	0x3da58249	0.080814905
138	0xbceb07b6	-0.0286902
139	0xbd0f0fdd	-0.034927238
140	0x3d8aaff4	0.06771842
141	0x3d776eb2	0.0604083
142	0xbc8edad4	-0.01743833
143	0x3d68bd9a	0.056821443
144	0xbc90a440	-0.017656446
145	0xbd0aae3b	-0.033857565
146	0xbd62137d	-0.055194367
147	0xbbc1be39	-0.005912569
148	0xbd5b511f	-0.05354416
149	0xbd499969	-0.04921857
150	0x3cad20a0	0.02113372
151	0xbcb94b27	-0.022618843
152	0x3c4739d5	0.012159784
153	0xbd2da35a	-0.042392112
154	0x3d62e93a	0.055398203
155	0x3d08f030	0.033432186
156	0x3cd3c58a	0.02585103
157	0x3d97ffff	0.07421874
158	0x3d49e039	0.0492861
159	0x3c05e73d	0.008172807
160	0x3d122c47	0.035686757
161	0xbc8e6d12	-0.017385993
162	0x3b871e6c	0.0041234996
163	0x3be3dfbe	0.0069541624
164	0x3d175e1f	0.036954995
165	0x3d54ed81	0.051984314
166	0xbd1d521e	-0.03840839
167	0x3d3f7a7e	0.046747677
168	0x3d67c25f	0.05658185
169	0xbbf771fe	-0.0075514307
170	0xbd100346	-0.03515937
171	0x3cdc8041	0.026916625
172	0x3d9235e0	0.07139182
173	0x3d113b09	0.03545669
174	0x3bac07ab	0.0052499375
175	0xbc217c65	-0.009856318
176	0xbd1bc32d	-0.03802793
177	0x3caa3946	0.020779263
178	0xbd97b0b3	-0.074067496
179	0x3c0a6f81	0.008449436
180	0x3c2864ff	0.010277986
181	0x3d081820	0.033226132
182	0x3d2c6232	0.042085834
183	0x3aaa9a1b	0.0013015898
184	0xbd3e9d74	-0.046536878
185	0x3d5e8e40	0.05433488
186	0xbd9d7c0a	-0.07689674
187	0xbc4ff1fd	-0.012691972
188	0xbd1a6182	-0.037690647
189	0xbc832bce	-0.016012099
190	0x3d22cf05	0.03974821
191	0x3d0e188d	0.034691382
192	0xbd0e5955	-0.034753162
193	0xbc8fd6a5	-0.017558405
194	0xbcb380cd	-0.021912003
195	0xbd0f8f16	-0.035048567
196	0x3a870ab8	0.0010302877
197	0x3cdddaf8	0.027081951
198	0x3d099f1f	0.033599015
199	0x3b5ccfe5	0.003369325
200	0x3c3490c8	0.011020847
201	0x3d299fec	0.04141228
202	0xbc7495bc	-0.014928278
203	0x3cc84614	0.024447478
204	0x3d870db3	0.0659441
205	0x3cd30bdf	0.025762497
206	0xbc11b6f9	-0.008893722
207	0x3c82ae1a	0.015952159
208	0x3d063de6	0.032773875
209	0x3d2a5843	0.04158808
210	0x3ce23ef7	0.027617915
211	0x3c80dd74	0.015730597
212	0x3d81dae3	0.063405775
213	0xbc0dcc06	-0.0086546
214	0x3bd71e70	0.0065649077
215	0xbc8cfec3	-0.017211324
216	0xbd0b31f9	-0.033983205
217	0x3d2e372b	0.04253308
218	0x3cd4d0c7	0.025978459
219	0xbcdc6181	-0.026901962
220	0x3d9c05cd	0.07618294
221	0xbd236bd3	-0.03989775
222	0x3d9ad258	0.07559651
223	0x3c74a7b6	0.0149325635
224	0xbca40b45	-0.020024905
225	0x3d6821d2	0.05667288
226	0x3b82d61f	0.0039928104
227	0x3d5f8ad7	0.054575767
228	0xbb0d2997	-0.0021539682
229	0x3d4c28fc	0.049843773
230	0xbccf520b	-0.025307676
231	0x3cec1d4b	0.028822562
232	0x3c5cde2d	0.013480705
233	0xbd761763	-0.060080897
234	0xbb81c636	-0.003960396
235	0xbd0f92ee	-0.035052232
236	0x3d6bfaec	0.057612345
237	0xbc7f9f52	-0.01560195
238	0xbcbb0bd3	-0.022832787
239	0x3d078e75	0.033094842
240	0x3d88af8e	0.066741094
241	0x3d19fab9	0.037592623
242	0x3c6245da	0.013810599
243	0x3bf1c973	0.007378751
244	0xbcf23d20	-0.029570162
245	0xbcddf565	-0.027094552
246	0x3c0514a8	0.008122601
247	0xbcd664bb	-0.026171079
248	0x3d4a94f1	0.049458448
249	0x3cb64718	0.022250697
250	0x3d7bf523	0.061513077
251	0x3cbef09a	0.023308087
252	0x3be743ec	0.0070576575
253	0x3d32ac05	0.04362108
254	0x3c496b4a	0.012293646
255	0x3d7b8872	0.06140942

fc2.bias f4 [256]
0	0x3cf5da84	0.030011423
1	0xbd44be32	-0.048032947
2	0x3d0735e7	0.03301039
3	0x3cd71b44	0.026258118
4	0x3c7d4c8e	0.015460147
5	0x3d962674	0.07331553
6	0x3d157d67	0.036496546
7	0x3d62ac6e	0.055340223
8	0x3cbb4d29	0.022863941
9	0x3d5c32dc	0.05375944
10	0x3c729d50	0.014808014
11	0xbca8e761	-0.020618143
12	0xbd360679	-0.044439767
13	0xbd5dc7ee	-0.054145746
14	0x3c07e9ec	0.008295517
15	0x3ce46fe2	0.027885381
16	0xbd26a61d	-0.04068576
17	0xbd68529e	-0.056719415
18	0xbbc088d3	-0.0058756857
19	0xbc440faa	-0.011966625
20	0xbbd82c1a	-0.006597054
21	0x3c087ad1	0.008330063
22	0x3d244553	0.040105175
23	0x3c3fbe7b	0.011703129
24	0x3d3db131	0.04631156
25	0x3d06b129	0.032883797
26	0xbc8f5fc6	-0.017501723
27	0x3d782d5c	0.060590133
28	0xbd07dc77	-0.033169236
29	0x3d3d53fd	0.046222676
30	0x3d51f782	0.051261432
31	0x3d9de847	0.07710319
32	0x3b3a277d	0.0028404885
33	0xbcc6ae19	-0.024252938
34	0xbd63a34b	-0.05557565
35	0x3d187108	0.03721717
36	0xbd2b90ad	-0.04188602
37	0x3d68f00e	0.05686956
38	0x3c97ef26	0.018546652
39	0xbccee6d7	-0.025256557
40	0xbd30ccc7	-0.04316404
41	0xbd23061f	-0.03980076
42	0xbb3ef6cd	-0.0029138804
43	0x3d8ad55b	0.067789756
44	0xbc901c98	-0.01759176
45	0x3d6ce806	0.057838462
46	0xbd1fa4d3	-0.038975548
47	0x3d0c808f	0.03430229
48	0x3bc96763	0.006146358
49	0xbc852474	-0.016252734
50	0xbd722144	-0.059113756
51	0x3c0a2381	0.008431316
52	0xbd33b034	-0.043869212
53	0xbd1d6d0b	-0.03843407
54	0x3c856545	0.01628364
55	0x3d80b733	0.062849425
56	0xbd2c1df6	-0.04202076
57	0x3c32d77e	0.010915635
58	0xbd0333ce	-0.032031827
59	0x3d96c6a7	0.07362109
60	0x3c8426ec	0.01613184
61	0x3caf7114	0.021416225
62	0xbca1a1c6	-0.01973046
63	0x3d40e629	0.047094498
64	0x3cd053fe	0.025430676
65	0x3d7a8902	0.061165817
66	0x3c70b6c9	0.014692017
67	0xbd8baaf7	-0.06819718
68	0x3a9b39a4	0.001184274
69	0xbca7041d	-0.020387704
70	0xbd429658	-0.04750666
71	0xbd31fad5	-0.043452103
72	0xbd16763e	-0.03673386
73	0x3a6f8c77	0.00091380574
74	0x3d4f50dc	0.050614223
75	0x3caa6b78	0.020803198
76	0x3be8a2a6	0.0070994673
77	0xbb10f7f0	-0.0022120439
78	0xbd4f687f	-0.050636765
79	0xbcb707de	-0.022342619
80	0x3c036f1d	0.008022097
81	0x3d4973b0	0.049182594
82	0xbcdb7ec9	-0.026793854
83	0xbd685980	-0.05672598
84	0xbd4d3508	-0.050099403
85	0x3d097f4c	0.033568665
86	0x3d5de92a	0.05417744
87	0x3daa31b0	0.083102584
88	0x3ce2c622	0.027682368
89	0x3d80e5ff	0.06293868
90	0x3d55c39d	0.052188504
91	0xbce873b2	-0.02837548
92	0x3d8ae2eb	0.067815624
93	0x3d51e18b	0.051240485
94	0xbcd6967b	-0.026194802
95	0xbd154eaf	-0.03645199
96	0x3cb7c36b	0.02243205
97	0x3b486373	0.0030576854
98	0xbb8aeed6	-0.0042398972
99	0x3c9a7955	0.018856684
100	0xbd2aa445	-0.041660566
101	0xbc8b6a2d	-0.017018402
102	0xbd7a4cc9	-0.061108384
103	0xbd552c2c	-0.05204408
104	0x3d0db379	0.034594987
105	0x3d4c6c7e	0.049908154
106	0x3d07a139	0.03311274
107	0x3d94281c	0.07234213
108	0xbd57bd2c	-0.052670643
109	0x3d893139	0.066988416
110	0xbcc1daea	-0.023663957
111	0x3d9b705e	0.07589792
112	0x3d5505b6	0.0520074
113	0x3d936ec0	0.07198858
114	0x3c56083c	0.013063487
115	0x3c31bb86	0.010847932
116	0x3d81b96e	0.06334196
117	0xbc614f24	-0.013751779
118	0x3d14eea0	0.036360383
119	0x3d453344	0.048144594
120	0xbc2967dd	-0.010339704
121	0xbb92a4f7	-0.0044752317
122	0x3d832153	0.064028405
123	0xbd2a786c	-0.04161875
124	0x3d4f2437	0.050571647
125	0xbd503a8c	-0.050837085
126	0x3cd457fa	0.025920857
127	0xbc6a5e00	-0.014304638
128	0xbc931c74	-0.017957903
129	0xbca22d17	-0.019796891
130	0xbbf4c9ac	-0.00747033
131	0xbd6a4f4e	-0.057204537
132	0xbd4e370a	-0.050345458
133	0xbca18453	-0.019716417
134	0xbd2fbd4a	-0.04290513
135	0x3da4cb80	0.08046627
136	0xbceee11c	-0.029160075
137	0x3d8a5d1c	0.067560405
138	0x3c679c6c	0.014136415
139	0xbd2043aa	-0.03912703
140	0xbcbb7ed6	-0.022887629
141	0x3d51acf7	0.051190343
142	0x3d7282a6	0.059206627
143	0x3d9d6867	0.07685929
144	0x3d9e612e	0.07733379
145	0x3bcf1426	0.0063195406
146	0xbd58b8c9	-0.0529106
147	0x3d945242	0.07242252
148	0xbca31986	-0.019909631
149	0xbc0f8a0d	-0.008760941
150	0xbd3927a6	-0.045203827
151	0xbbdf1665	-0.0068080896
152	0xbd0092e8	-0.0313901
153	0xbb9376a8	-0.004500229
154	0x3cf6223a	0.030045617
155	0xbcb2bc75	-0.021818379
156	0x3d1ccfc0	0.038284063
157	0x3be09021	0.006853119
158	0xbd934e69	-0.0719269
159	0xbd248504	-0.040165916
160	0x3bc56741	0.0060242717
161	0xbd288be3	-0.04114903
162	0xbcee3be9	-0.029081302
163	0x3d877b6e	0.06615339
164	0x3ccf9535	0.025339702
165	0xbd465173	-0.04841752
166	0x3d6d63b9	0.05795643
167	0xbc7575df	-0.014981716
168	0x3b5508a0	0.0032506362
169	0xbd0f9281	-0.035051826
170	0x3d3bc278	0.045839757
171	0x3c8f1413	0.017465627
172	0x3c0812aa	0.008305231
173	0xbd1da512	-0.0384875
174	0x3d10bcb9	0.03533623
175	0x3c8eb49d	0.017420107
176	0xbd7c6a70	-0.061624944
177	0x3cf82dac	0.030295216
178	0x3d4d3c1b	0.05010615
179	0xbd3f9567	-0.04677334
180	0x3d5eb28d	0.054369498
181	0x3c64dfe3	0.013969394
182	0x3d06014a	0.032716073
183	0xbc4a0326	-0.012329852
184	0x3bdcd911	0.0067397435
185	0xbd239959	-0.039941166
186	0x3c767172	0.015041696
187	0xbca7759c	-0.020441823
188	0xbd095543	-0.033528578
189	0xbc128124	-0.008941922
190	0x3c70142a	0.014653245
191	0xbcf4c73f	-0.029880164
192	0x3d00f0e9	0.03147975
193	0xbd44de36	-0.04806348
194	0x3cc3d7c5	0.023906598
195	0x3cf229c8	0.029560938
196	0xbca661b1	-0.020310255
197	0x3d90679e	0.070510134
198	0xbd1ee3e7	-0.038791563
199	0x3d7a1db8	0.0610635
200	0xbbe4ed18	-0.0069862716
201	0x3cfa13de	0.030527052
202	0x3d9317df	0.071822874
203	0x3d05e93a	0.032693125
204	0x3d2fca21	0.042917375
205	0xbd203861	-0.039116267
206	0xbd5d56ed	-0.054037977
207	0xbce77b43	-0.028257018
208	0xbd24119d	-0.04005586
209	0xbd6cf6fb	-0.057852726
210	0x3d05457d	0.032536972
211	0x3da06a0d	0.078327276
212	0x3b5961bd	0.0033169829
213	0x3a1442ca	0.00056557043
214	0x3bdf79b8	0.00681993
215	0xbd7eb8d3	-0.06218798
216	0xbd0f0924	-0.034920827
217	0xba52bda7	-0.00080391247
218	0xbb10604b	-0.0022030051
219	0x3c24dcfc	0.010062452
220	0xbae39a57	-0.0017364722
221	0xbd0d7429	-0.034534607
222	0xbcf03f67	-0.029327108
223	0x3a140d82	0.0005647765
224	0x3c14be59	0.009078586
225	0x3cb02550	0.021502167
226	0x3d83fb03	0.06444361
227	0x3c016695	0.007897993
228	0xbaf5cda0	-0.0018753298
229	0x3d85d021	0.06533838
230	0x3d2f3683	0.042776596
231	0xbcb84824	-0.022495337
232	0xbcd15084	-0.025551088
233	0xbab92114	-0.0014124238
234	0x3cf781e4	0.030213304
235	0xbd0e7334	-0.034777835
236	0xbd7d9d9d	-0.06191789
237	0x3d46293b	0.048379164
238	0xbd62bee4	-0.05535783
239	0x3d6b092f	0.057381805
240	0x3b919b2d	0.004443547
241	0xbd45cd4e	-0.048291497
242	0xbc9ae078	-0.018905863
243	0x3ad5c3ba	0.0016308941
244	0xbcfb302f	-0.030662624
245	0xbd8046f2	-0.06263532
246	0x3d783c88	0.060604602
247	0x3d9f9300	0.0779171
248	0x3d06410c	0.032776877
249	0x3d4609fd	0.04834937
250	0x3cda4da1	0.026648344
251	0xbd0f5581	-0.034993652
252	0xbd013808	-0.031547576
253	0x3d8cb3e3	0.06870248
254	0x3d679ecc	0.056547925
255	0x3d4e4bac	0.050365135

fc3.weight f4 [256, 256]
0	0xbca0bff6	-0.019622784
1	0xbc5e8f50	-0.013583973
2	0x3d43d4a5	0.047810216
3	0x3d688bc0	0.0567739
4	0xbce882fc	-0.02838277
5	0x3cc60d76	0.02417634
6	0xbd067b42	-0.03283239
7	0xbd0158e4	-0.031578913
8	0x3d44ed5a	0.04807792
9	0xbc0887db	-0.008333172
10	0x3b65481c	0.0034985607
11	0x3d42a08c	0.04751639
12	0x3c9cc613	0.019137418
13	0x3d74b4bf	0.059742685
14	0xbc931b15	-0.01795725
15	0xbc3421cd	-0.010994387
16	0x3d13700f	0.03599554
17	0x3c00f940	0.007871926
18	0x3d706e9e	0.058699243
19	0x3d8c40b3	0.06848278
20	0xbd4c3f22	-0.049864896
21	0xbd392c68	-0.045208365
22	0x3cb5671f	0.022143899
23	0x3d3bc7e9	0.045844946
24	0x3cfef76a	0.031123836
25	0xbd3ae91d	-0.04563247
26	0x3cd39bc6	0.025831115
27	0x3cd69450	0.026193768
28	0xbc0b14c7	-0.00848884
29	0x3ce9a68f	0.028521804
30	0x3d83061f	0.06397652
31	0x3d9b2788	0.07575899
32	0x3c14a98e	0.009073628
33	0xbb4d7c5d	-0.0031354644
34	0x3d1cb7a2	0.038261063
35	0xbcc9484d	-0.024570609
36	0x3d903d41	0.07042933
37	0xbca5c52f	-0.020235626
38	0x3d82cc7d	0.06386659
39	0xbd541414	-0.05177696
40	0xbccff02b	-0.025383076
41	0x3d680f7e	0.0566554
42	0xbcf26acd	-0.029591942
43	0x3b490e5f	0.0030678732
44	0xbd723c32	-0.059139438
45	0xbd02175b	-0.031760555
46	0x3d893e1d	0.067013
47	0x3c90d89e	0.017681416
48	0x3c4374cc	0.011929702
49	0xbc55f402	-0.013058664
50	0xbb06bd95	-0.0020559777
51	0x3cd6e12b	0.026230415
52	0xbd1e72f6	-0.038683854
53	0x3caf27fb	0.021381369
54	0xbc7e833d	-0.015534219
55	0x3db2edba	0.08736749
56	0x3d7ea852	0.06217224
57	0x3d365e9b	0.044523817
58	0x3d0257e4	0.0318221
59	0xbc10f659	-0.008847796
60	0xbcaa30b3	-0.020775175
61	0x3d75b863	0.059990298
62	0x3d620252	0.055177994
63	0x3d46828d	0.048464347
64	0x3cae9ac0	0.021314025
65	0x3d7fda94	0.06246431
66	0x3d200705	0.039069194
67	0x3c9d0063	0.019165223
68	0xbc27c8ae	-0.010240717
69	0x3d945d0d	0.072443105
70	0x3d30ff27	0.043212082
71	0xbc93794a	-0.018002171
72	0xbd5fcf6c	-0.054641172
73	0x3d5c25f2	0.053747125
74	0x3d9207a8	0.071303666
75	0x3d5d05bb	0.053960543
76	0xbd5ec4f2	-0.05438704
77	0x3c46e318	0.012139104
78	0xbd310d47	-0.043225553
79	0x3c82a502	0.015947822
80	0x3da6b80f	0.08140575
81	0xbcdd714a	-0.02703156
82	0x3d845135	0.064608015
83	0x3c4d6c01	0.012537957
84	0xbd269ff0	-0.040679872
85	0x3d62ffb2	0.05541963
86	0xbd69f4af	-0.057118114
87	0x3cc301a7	0.023804499
88	0x3d7898e9	0.0606927
89	0x3d798963	0.060922038
90	0x3d39fb25	0.045405526
91	0xbd252068	-0.040314108
92	0xbcc67553	-0.024225866
93	0x3d477846	0.048698686
94	0xbd188d76	-0.037244283
95	0xbcbdc13b	-0.023163429
96	0xbc1f85bf	-0.009736477
97	0x3d0028ef	0.031289037
98	0xbc78d224	-0.01518682
99	0x3d3d4299	0.04620609
100	0x3c2a2669	0.010385134
101	0xbd3bd1d3	-0.0458544
102	0x3ce9704d	0.028495932
103	0x3d5c6d62	0.053815253
104	0xbd589894	-0.052879885
105	0xbd0182cd	-0.031618882
106	0x3d488b95	0.04896124
107	0xbc884258	-0.016633198
108	0xbd083f2e	-0.033263378
109	0xbd3d8f6f	-0.046279367
110	0x3ba79c62	0.005115078
111	0x3da20375	0.079108156
112	0x3c64e059	0.013969504
113	0x3d993e30	0.074825644
114	0xb9a57cf1	-0.0003156434
115	0x3d35c6a1	0.04437888
116	0x3d968f82	0.07351591
117	0x3c9c18c1	0.019054772
118	0x3d6bda59	0.05758128
119	0x3cb1bebc	0.021697395
120	0xbcdf4fbb	-0.027259698
121	0xbcc88316	-0.02447657
122	0xbd1cea77	-0.03830954
123	0x3d2b87a5	0.041877408
124	0x3c98a58f	0.018633632
125	0xbd3bb92a	-0.045830883
126	0x3be883b8	0.00709578
127	0x3d8c7520	0.06858277
128	0xbd4d65cb	-0.050145905
129	0xbd011267	-0.03151169
130	0x3d0d844b	0.034549993
131	0xbbb8d7c2	-0.0056409547
132	0x3d565033	0.052322578
133	0x3c8c3851	0.017116698
134	0x3cbf6bb9	0.023366796
135	0x3d10cb43	0.035350095
136	0x3d4bcd54	0.049756363
137	0x3ca14df1	0.019690486
138	0x3d160fa9	0.03663603
139	0xbd14b364	-0.036303893
140	0xbcc6fab1	-0.02428946
141	0x3d269c1c	0.04067622
142	0xbce3fd22	-0.027830664
143	0x3cb59786	0.022166979
144	0x3d2fedb5	0.042951304
145	0x3a96b1bd	0.0011497062
146	0xbc8e6050	-0.01737991
147	0xbc23e821	-0.010004074
148	0x3c8fd092	0.017555509
149	0x3d975a6a	0.07390292
150	0xbce36920	-0.027760088
151	0x3c755bf7	0.014975539
152	0xbd7f847d	-0.06238221
153	0x3d2adb29	0.041712914
154	0x3d13d65c	0.0360931
155	0x3d400a61	0.046884898
156	0x3c461047	0.012088842
157	0x3d5e2bc7	0.054240968
158	0x3cf0ea50	0.029408604
159	0x3bd536d5	0.0065067806
160	0xbcac362a	-0.021021921
161	0xbd297b0f	-0.041377123
162	0x3d7f1722	0.06227792
163	0x3d32ca51	0.043649975
164	0x3d925779	0.0714559
165	0xbb861f16	-0.004093061
166	0x3daa1bbe	0.08306073
167	0x3ba4aae1	0.005025253
168	0x3d72345f	0.059131976
169	0xbd01217b	-0.03152607
170	0x3d82e00e	0.06390391
171	0x3d993143	0.07480099
172	0xbce1ef7e	-0.02758002
173	0x3d72a11c	0.059235677
174	0xbb438d14	-0.0029838728
175	0xbd0889cd	-0.033334542
176	0x3d228fe1	0.039687995
177	0xbd33cad3	-0.0438946
178	0x3cddf40b	0.027093908
179	0xbd83b24b	-0.06430491
180	0xbce2854c	-0.027651452
181	0x3da5f1b8	0.08102745
182	0xbc3d7953	-0.0115645705
183	0x3d57e5f3	0.05270953
184	0x3c648cbd	0.01394957
185	0x3d96a43e	0.073555455
186	0xbd5edf9f	-0.05441248
187	0x3d979e23	0.07403209
188	0xbbd663b8	-0.006542649
189	0x3c8882a3	0.016663855
190	0x3d9bf94e	0.076159105
191	0x3cc86756	0.024463337
192	0xbd2d586c	-0.042320654
193	0xbd1af827	-0.037834313
194	0x3d227069	0.039657984
195	0x3d3e6484	0.046482578
196	0xbc21206a	-0.009834388
197	0x3da0f0c6	0.07858424
198	0xbce29435	-0.027658561
199	0xbc68e5f4	-0.014214981
200	0x3d2285e1	0.039678458
201	0x3dae9b90	0.08525765
202	0xbd112a62	-0.03544081
203	0xbcce4e4b	-0.025183817
204	0x3da4c0aa	0.0804456
205	0x3ccffd9a	0.025389481
206	0x3d35708b	0.044296782
207	0x3c690f3c	0.014224824
208	0x3d72b31f	0.059252854
209	0xbb8f6150	-0.004375614
210	0xbd28d203	-0.041215908
211	0x3d80ccf5	0.062890925
212	0xbb5d54d6	-0.003377249
213	0x3d99513c	0.07486197
214	0x3d42348b	0.04741339
215	0x3d468d5f	0.048474666
216	0x3d102b54	0.03519757
217	0x35f1ec00	1.8024584e-06
218	0xbd0455f8	-0.03230855
219	0x3b97cf03	0.004632832
220	0x3c4d3ece	0.012527181
221	0x3d96a945	0.07356504
222	0xbd3dff5f	-0.04638612
223	0xbb3e9b70	-0.0029084347
224	0xbcd71f63	-0.026260084
225	0x3d2b8915	0.04187878
226	0x3d106053	0.035248112
227	0x3cf0127f	0.029305695
228	0x3ce7ce05	0.02829648
229	0x3da9daf7	0.08293717
230	0x3bd3c59b	0.0064627654
231	0x3c95d1b9	0.01828848
232	0xbaff05c7	-0.0019456678
233	0x3d664173	0.05621476
234	0x3da94840	0.08265734
235	0x3c9c379f	0.019069491
236	0xbd122829	-0.03568283
237	0x3cdf6f77	0.02727483
238	0xbd84437e	-0.064581856
239	0x3d8a4c35	0.067528166
240	0x3d9ff41b	0.07810231
241	0x3cdc0850	0.026859432
242	0x3d2d48cc	0.042305753
243	0xbd39398c	-0.045220897
244	0xbc0f2b59	-0.008738362
245	0xbd2987ef	-0.041389402
246	0xbce701f4	-0.028199174
247	0x3d88baa0	0.06676221
248	0x3d9f7c03	0.07787325
249	0xbc3f2cdb	-0.011668409
250	0x3d118605	0.0355282
251	0x3d12757e	0.03575658
252	0x3d7f6c47	0.06235912
253	0x3cb49886	0.022045385
254	0x3d9338f2	0.07188596
255	0x3d186169	0.037202273

fc3.bias f4 [256]
0	0x3c14f812	0.009092348
1	0x3d41af3f	0.04728627
2	0xbd7520b2	-0.059845634
3	0x3d2d3c13	0.04229362
4	0x3d27ec19	0.040996645
5	0xbd8a5431	-0.067543395
6	0xbd17c0d3	-0.037049126
7	0x3d2a9ee9	0.041655455
8	0xbd78e098	-0.060761064
9	0x3d99a0bb	0.0750136
10	0x3ca7d011	0.020484956
11	0xbd1bf36d	-0.038073946
12	0x3d264f53	0.040602993
13	0xbcd94942	-0.02652419
14	0x3c9bdcd5	0.0190262
15	0xbd6fb693	-0.058523726
16	0xbd87c900	-0.066301346
17	0x3d58e3ae	0.052951507
18	0x3d4e297a	0.050332524
19	0x3d7b0568	0.061284453
20	0x3cfa2fe3	0.030540412
21	0x3cc4f20d	0.0240412
22	0x3cefc757	0.029269857
23	0xbd8736bd	-0.066022374
24	0x3d02e38e	0.031955294
25	0x3c969a94	0.018384255
26	0x3b7ff479	0.003905563
27	0xbd7d3b63	-0.061824214
28	0xbcc4acb0	-0.024008125
29	0xbd68e7e9	-0.05686179
30	0x3baaa5a7	0.0052077356
31	0xbcb8e87d	-0.022571797
32	0x3ce0224e	0.027360108
33	0x3d80c3b9	0.06287331
34	0x3c018ec1	0.00790757
35	0x3c210bf0	0.009829506
36	0xbc2f23ac	-0.010689657
37	0xbc8fe8c6	-0.01756705
38	0xbd7c03a9	-0.061526928
39	0x3cbd8ab7	0.023137433
40	0xbd7b8d06	-0.061413787
41	0xbd76bdc6	-0.060239576
42	0x3d59b6e9	0.053152952
43	0xbd60f2ae	-0.054918937
44	0x3d34f82c	0.044181988
45	0xbce0491e	-0.027378615
46	0x3d1c6361	0.038180713
47	0x3d03984e	0.03212767
48	0xbd9565fa	-0.07294841
49	0xbd8c03a4	-0.06836632
50	0x3d20eb1e	0.039286725
51	0x3c02be7b	0.007979984
52	0x3d924b4a	0.071432665
53	0x3cfc80d1	0.030823143
54	0xbcb04c0c	-0.021520637
55	0xbb15fb18	-0.002288526
56	0xbcf6012c	-0.030029856
57	0x3c3580d6	0.01107808
58	0xbc6ba1ce	-0.014381839
59	0xbd285a6c	-0.041101858
60	0x3cb39e6e	0.021926131
61	0xbd7e0a74	-0.062021688
62	0x3d2b4637	0.04181501
63	0xbc5e0c89	-0.013552793
64	0x3d971d41	0.073786266
65	0xbc9bad38	-0.019003496
66	0x3cfcff47	0.030883444
67	0xbd596585	-0.053075332
68	0xbce72598	-0.028216168
69	0xbd2f0966	-0.042733572
70	0x3d11a1cb	0.03555469
71	0xbbb9b9a5	-0.0056678825
72	0x3d02c66f	0.031927522
73	0xbd104dc7	-0.035230424
74	0xbd2739df	-0.040826675
75	0x3d268990	0.040658534
76	0x3d8d9703	0.06913569
77	0x3d806e6d	0.06271062
78	0x3c82d9d5	0.015973011
79	0x3d92d68f	0.0716983
80	0xbd504982	-0.050851353
81	0xbb8a2970	-0.0042163655
82	0xbd21b389	-0.03947786
83	0xbcea4d05	-0.028601179
84	0xbb1303dd	-0.0022432723
85	0x3c8c4eab	0.017127356
86	0x3c2d97bc	0.010595258
87	0xbc1686ac	-0.009187382
88	0xbd705dae	-0.05868309
89	0x3d2d94b8	0.042378157
90	0xbd227dda	-0.039670803
91	0xbd654003	-0.05596925
92	0x3cf7f985	0.030270347
93	0xba82b354	-0.0009971657
94	0xbc501939	-0.012701326
95	0xbc622956	-0.013803801
96	0x3bc72306	0.006077173
97	0xbd417b10	-0.047236502
98	0xba8a8632	-0.0010568558
99	0x3baa5285	0.0051978254
100	0xbd33c773	-0.04389138
101	0x3d1044a1	0.0352217
102	0xbccecd05	-0.025244245
103	0x3ceaae2b	0.028647503
104	0x3bddc4d7	0.00676785
105	0xbc6636c0	-0.014051139
106	0x3d895499	0.06705589
107	0x3d7ad168	0.06123486
108	0xbcd32fea	-0.025779683
109	0x3d1567e9	0.03647605
110	0x3d8368fe	0.0641651
111	0x3c1a5908	0.009420641
112	0x3d5990bf	0.053116556
113	0xbd05b907	-0.03264716
114	0xbc9ae96c	-0.018910132
115	0x3d5a79e2	0.053338893
116	0x3cedba16	0.029019397
117	0xbd6d9d68	-0.058011442
118	0xbc90600e	-0.017623927
119	0xbd433bf3	-0.047664594
120	0x3c814bd9	0.015783237
121	0xbd128335	-0.03576966
122	0x3d6c63f6	0.057712518
123	0xbc20c296	-0.009812018
124	0x3d9a7a93	0.075429104
125	0xbbabef91	-0.0052470644
126	0x3ca2a756	0.019855183
127	0x3d3b70a7	0.04576173
128	0x3d4b5664	0.049642935
129	0xbc87e3df	-0.01658815
130	0x3ce275b6	0.02764402
131	0xbaa6a27f	-0.0012713223
132	0x3a6b25da	0.0008970179
133	0x3d263b75	0.040584046
134	0x3c3ee694	0.011651654
135	0xbd50f779	-0.05101726
136	0xbd63ab2f	-0.055583175
137	0x3d2a2781	0.04154158
138	0xbcab3893	-0.020901
139	0x3da41c9d	0.0801327
140	0xbd0f9ba6	-0.035060547
141	0x3c99fe25	0.018797943
142	0xbd222ec9	-0.0395954
143	0xbbf40efc	-0.0074480753
144	0xbd45e0f2	-0.048310228
145	0xbd0f4c85	-0.034985084
146	0xbd3a47fe	-0.045478813
147	0x3d6a9e74	0.05728002
148	0x3d3ad960	0.04561746
149	0x3d4880f8	0.04895112
150	0xbd81f4cc	-0.063455194
151	0xbc67410d	-0.01411463
152	0xbca53af7	-0.020169718
153	0x3d246aa4	0.040140763
154	0xbc8705bd	-0.016482228
155	0x3cbf60d2	0.023361597
156	0xbd18d66f	-0.037313875
157	0xbb84d6f7	-0.004053946
158	0x3d6b0ed5	0.05738719
159	0x3d29c7c2	0.04145027
160	0xbca373a3	-0.0199526
161	0xbd7bef87	-0.061507728
162	0x3d779d68	0.06045285
163	0xbc4b24cf	-0.012398913
164	0xbc44747c	-0.011990663
165	0xbb2043fe	-0.002445459
166	0x3d9c26b7	0.07624572
167	0xbacfe8f1	-0.0015862269
168	0xbcc2dfef	-0.02378842
169	0x3c073284	0.00825179
170	0x3d8cfca4	0.06884125
171	0x3d7a8e7f	0.06117105
172	0x3d5e62aa	0.054293312
173	0xbd6a5380	-0.057208538
174	0xbcff3d95	-0.031157294
175	0x3d51ec5f	0.05125081
176	0x3d4dac3c	0.050213084
177	0xbd7f03a4	-0.06225933
178	0xbd41d4b9	-0.04732201
179	0xbd75511b	-0.0598918
180	0x3d815c4a	0.06316431
181	0xbd0634b6	-0.032765113
182	0xbd034409	-0.032047305
183	0x3bc4bda6	0.006004053
184	0xbd81486a	-0.0631264
185	0xbd204e84	-0.03913738
186	0x3d05f902	0.032708175
187	0x3d5d6250	0.054048836
188	0xbc1a8cee	-0.009433014
189	0xbcfe9eee	-0.031081643
190	0xbd70d241	-0.058794264
191	0xbc9df70a	-0.019282836
192	0xbc3aa586	-0.011392003
193	0x3c48efe7	0.012264228
194	0x3bc51775	0.006014759
195	0xbc9c2830	-0.019062132
196	0x3a1cdb87	0.000598364
197	0x3d9d78a5	0.07689027
198	0x3c5afe0b	0.013366233
199	0x3ca02da1	0.019553008
200	0x3cf72de9	0.030173259
201	0x39a7e484	0.0003202298
202	0x3d0528e1	0.03250969
203	0xbb964061	-0.0045853113
204	0x3c6b8ba0	0.014376551
205	0x3cb030f7	0.021507723
206	0xbd24f3c2	-0.040271528
207	0x3aabf7a5	0.0013120068
208	0xbd8754be	-0.0660796
209	0x3d3d25db	0.04617868
210	0xbd372b00	-0.044718742
211	0x3d8c55cf	0.06852304
212	0xbd1f1a35	-0.038843352
213	0xbc3533c9	-0.01105971
214	0xbd220f30	-0.039565265
215	0x3d6513f1	0.05592722
216	0xbd2b6e93	-0.0418535
217	0xbc5b7b98	-0.013396166
218	0x3cfd0451	0.030885847
219	0x3a8a74ee	0.0010563412
220	0x3d299440	0.041401148
221	0xbbe7b492	-0.007071086
222	0xbd7123dd	-0.058872093
223	0xb90566c2	-0.00012722149
224	0xbd1f975e	-0.038962714
225	0x3d6ae724	0.05734934
226	0xbb55347b	-0.0032532502
227	0xbc4812a4	-0.0122114755
228	0xbc22262a	-0.009896794
229	0x3bb86726	0.0056275306
230	0xbc3d2ac4	-0.011545841
231	0x3d59215a	0.053010322
232	0x3c0c214c	0.0085528605
233	0x3d0da804	0.03458406
234	0x3d33d4e8	0.043904215
235	0xbd7575f8	-0.059926957
236	0x3d0abeb0	0.03387326
237	0x3cceb047	0.02523054
238	0x3c9423b9	0.01808344
239	0x3d311258	0.043230385
240	0x3d8d0610	0.06885922
241	0xbd6dd883	-0.05806781
242	0x3cb2a9c4	0.021809466
243	0xbd5a6d78	-0.053327054
244	0xbcaaa7bc	-0.020831935
245	0xbc8b8fef	-0.017036406
246	0xbc584e31	-0.013202236
247	0x3d0b5ee6	0.03402605
248	0xbd0dc347	-0.03461006
249	0x3c12b2e2	0.008953782
250	0x3da0540e	0.07828532
251	0x3c843b01	0.016141417
252	0x3c60d9e6	0.013723826
253	0xbca5af80	-0.020225286
254	0x3b60b9ce	0.0034290436
255	0xbd4a3276	-0.04936453

action_out.weight f4 [2, 256]
0	0xbaabd636	-0.0013110104
1	0x3d50224b	0.050813954
2	0x3d612583	0.054967415
3	0x3d06a91a	0.03287611
4	0xbcebb2c5	-0.028771767
5	0xbcb8cb9c	-0.022558026
6	0xbd2c4aad	-0.042063404
7	0x3d396910	0.04526621
8	0x3c3f2600	0.011666775
9	0x3cdc9ec8	0.026931182
10	0x3caf0fdb	0.021369865
11	0xbd362046	-0.044464372
12	0x3c22585a	0.00990876
13	0x3d67db6f	0.056605753
14	0x3d3ee017	0.046600427
15	0xbcc48d8f	-0.023993282
16	0x3d604233	0.054750632
17	0x3d8f0283	0.06982901
18	0x3d3cd5b9	0.04610226
19	0x3cece654	0.028918423
20	0x3c711201	0.014713765
21	0xbc8ab4a7	-0.016931845
22	0x3d83b3b5	0.06430761
23	0xbcec5cf8	-0.028852925
24	0xbc9b4013	-0.018951451
25	0xbd07328e	-0.033007197
26	0x3d249d0b	0.04018883
27	0x3caafa37	0.020871265
28	0xbd3ff2b5	-0.046862323
29	0xbb58aa31	-0.0033060426
30	0xbc82ecd7	-0.015982075
31	0x3d4f2a06	0.050577186
32	0x3d1c5ffe	0.038177483
33	0x3d6ba50c	0.057530448
34	0x3c8cbe07	0.017180456
35	0x3d460551	0.048344914
36	0x3a266870	0.000634796
37	0xbd3483e9	-0.04407111
38	0x3becb313	0.0072234957
39	0xbcd96d0e	-0.02654126
40	0xbd589b95	-0.05288275
41	0xbd1385bd	-0.036016215
42	0xbd0c2fc8	-0.034225255
43	0x3c92aec0	0.017905593
44	0xba9299e3	-0.0011184778
45	0xbd175f53	-0.036956143
46	0x3cbdc089	0.023163097
47	0xbd540e1d	-0.051771272
48	0xbc609ff8	-0.0137100145
49	0xbcac64f6	-0.021044236
50	0x3d4b73cc	0.04967098
51	0xbd655203	-0.055986416
52	0x3ada7db6	0.0016669545
53	0xbcb14cbb	-0.021643033
54	0xbcb2cf1f	-0.021827279
55	0xbd2c80f4	-0.042115167
56	0x3cac7b39	0.02105485
57	0x3d84d31b	0.06485578
58	0xbd240866	-0.040047072
59	0xbd25d9d6	-0.040490948
60	0xbc0f740a	-0.008755693
61	0x3d2a3326	0.041552685
62	0x3c2cb6d0	0.010541633
63	0x3d286d01	0.04111958
64	0x3c42482a	0.011858026
65	0xbc609033	-0.013706255
66	0x3d4a697a	0.049416997
67	0x3bd64d6d	0.0065399916
68	0xbd2d1b95	-0.042262632
69	0xbd495676	-0.04915472
70	0x3da04459	0.07825536
71	0xbd6b6d6d	-0.057477403
72	0xbd0a98e6	-0.03383722
73	0x3cd542ff	0.026032923
74	0xbd8c08c7	-0.06837612
75	0xbcd23028	-0.025657728
76	0xbd8527d7	-0.065017395
77	0x3d188199	0.03723297
78	0xbd10ae12	-0.035322256
79	0x3d79a742	0.060950525
80	0xbd250ab6	-0.040293418
81	0x3bae17fc	0.0053129178
82	0xbc108a05	-0.008821969
83	0xbd21e99a	-0.03952942
84	0xbd24bd54	-0.04021962
85	0xbd5852de	-0.052813403
86	0x3c00676f	0.0078371605
87	0xbd6bcbfe	-0.05756759
88	0x3ad2f19f	0.0016093737
89	0xbd8f7406	-0.070045516
90	0x3d739164	0.059464827
91	0xbd0dc0dc	-0.034607753
92	0x3d9b0116	0.075685665
93	0x3c199ff0	0.009376511
94	0x3c56cbc1	0.013110102
95	0x3c2ff5a7	0.01073972
96	0x3d800b31	0.062521346
97	0x3cd7891c	0.026310496
98	0xbd47e52d	-0.048802543
99	0xbd5c0063	-0.053711306
100	0x3d851197	0.064974956
101	0xbc31a5d5	-0.01084276
102	0x3d2241ed	0.039613653
103	0xbd3f8ab2	-0.04676313
104	0xbd60094d	-0.05469637
105	0x3d5676eb	0.052359503
106	0xbba64425	-0.0050740414
107	0x3cde0bd3	0.027105248
108	0xbc0bbacf	-0.008528425
109	0x3d6e9b2b	0.05825345
110	0x3d0adbc9	0.03390101
111	0xbbd4340d	-0.0064759315
112	0x3b240250	0.0025025792
113	0xbcb79deb	-0.022414168
114	0xbbf8d1a2	-0.0075933496
115	0xbcfd926d	-0.03095361
116	0xbd1110c3	-0.035416376
117	0x3d6773d2	0.05650694
118	0x3d619972	0.055077977
119	0x3cf6af55	0.030112902
120	0x3cc1cb8f	0.023656635
121	0x3d98b865	0.074570455
122	0x3d5de3e9	0.05417243
123	0xbd528652	-0.05139763
124	0x3d4502bc	0.04809831
125	0x3ce420d7	0.02784769
126	0x3d319348	0.04335335
127	0x3cca734a	0.024713177
128	0xbd0ba90a	-0.034096755
129	0xbcbd25ba	-0.023089278
130	0x3c023da9	0.007949271
131	0x3d3cd68e	0.046103053
132	0x3d1e8d3b	0.038708907
133	0xbb4b0dd3	-0.0030983582
134	0x3d132b69	0.03593007
135	0xbc5ad86d	-0.013357264
136	0x3c847002	0.01616669
137	0x3d20b055	0.039230663
138	0x3d3ff88f	0.046867903
139	0xbc0c2e25	-0.008555924
140	0x3c5e5914	0.013571043
141	0x3d6214fc	0.055195794
142	0x3c7b4f70	0.015338764
143	0xbd61eb31	-0.055155937
144	0xbc9605e6	-0.01831336
145	0x3c849623	0.016184872
146	0x3cc40103	0.023926264
147	0xbc69bf31	-0.014266775
148	0x3c7398f0	0.014868006
149	0xbc650a35	-0.013979484
150	0x3d4c8bc0	0.049937963
151	0xbd5ca42d	-0.053867508
152	0x3d3c752c	0.04601018
153	0xbd67cf10	-0.056593955
154	0xbb42e73b	-0.0029739875
155	0xbd004230	-0.03131312
156	0xbd4a8ade	-0.04944884
157	0x3c8a5544	0.016886361
158	0xbd0f44f3	-0.034977864
159	0xbcacee36	-0.021109682
160	0x3d060b8b	0.032725852
161	0xbd61b27c	-0.055101857
162	0x3c70e1b3	0.014702248
163	0x3d0bf01c	0.034164533
164	0x3d6b058e	0.057378344
165	0xbd7698fa	-0.060204484
166	0xbd0de654	-0.034643486
167	0xbcfdde92	-0.030989919
168	0x3cda8e3d	0.026679153
169	0x3d161147	0.03663757
170	0xbc98214d	-0.018570567
171	0x3bd72c9e	0.006566598
172	0x3d8721df	0.06598257
173	0xbcd26c60	-0.025686443
174	0xbc49c80f	-0.012315764
175	0x3cd90866	0.026493262
176	0xbc4fc523	-0.012681278
177	0xbbd2de2d	-0.006435177
178	0xbc88cebe	-0.016700145
179	0xbd6763b5	-0.056491572
180	0xbcaff889	-0.021480815
181	0x3d60c1f5	0.05487247
182	0xbd381e8b	-0.044951003
183	0x3cf0b2a3	0.029382056
184	0xbc89bb81	-0.016813042
185	0x3cf6e6c9	0.030139344
186	0x3d5e657b	0.054295998
187	0x3d993805	0.07481388
188	0x3d88a655	0.0667235
189	0xbc321c8f	-0.010871067
190	0x3d02c5c3	0.03192688
191	0xbd543ac9	-0.051813874
192	0xbc22381e	-0.009901075
193	0x3c66385b	0.014051522
194	0xbd45a665	-0.04825439
195	0xbc9c386f	-0.019069878
196	0xbd1af095	-0.037827093
197	0x3d745b51	0.0596574
198	0x3cea686f	0.028614251
199	0xbd1f86c9	-0.0389469
200	0x3c870976	0.016484004
201	0xbd388aad	-0.045054127
202	0x3d29696e	0.04136031
203	0x3d52380f	0.051322993
204	0xbd759aeb	-0.059962194
205	0xbd5e5a60	-0.054285407
206	0xbd6528b7	-0.05594703
207	0x3d27bb75	0.040950257
208	0x3ce27621	0.027644219
209	0x3d21a81a	0.039466955
210	0x3c949c5d	0.018140966
211	0x3d4c5b55	0.04989179
212	0x3cd2d8af	0.025738088
213	0xbd11ef84	-0.03562881
214	0x3d240d15	0.04005154
215	0x3cff516e	0.031166758
216	0x3d1118d9	0.035424087
217	0xbd55a3e8	-0.052158266
218	0xbd594c51	-0.053051297
219	0x3c4eeea8	0.012630142
220	0xbc6b48d2	-0.014360623
221	0xbc24f2d5	-0.010067661
222	0xbc43cd29	-0.011950769
223	0x3d2dbeee	0.042418413
224	0xbcc8613c	-0.024460427
225	0x3b92654a	0.004467641
226	0x3d34da6d	0.04415362
227	0xbd384460	-0.044987082
228	0xb9a776d4	-0.00031941256
229	0x3d904a2c	0.07045397
230	0x3c489414	0.012242336
231	0x3d814f8d	0.06314001
232	0x3d8020f4	0.06256285
233	0x3c706399	0.014672183
234	0xbca36df4	-0.01994989
235	0xbcc88b79	-0.024480568
236	0x376dbfe6	1.4170981e-05
237	0x3d51b66d	0.051199365
238	0xbba290db	-0.004961116
239	0x3ceff413	0.029291188
240	0x3d6f38ec	0.058403894
241	0xbd033e37	-0.032041755
242	0x3bcbe411	0.006222256
243	0xbd41d1b9	-0.047319148
244	0xbca8234e	-0.020524647
245	0xbd20185e	-0.03908574
246	0x3d7c7fe4	0.061645404
247	0x3d26ac7e	0.040691845
248	0x3d4e6f34	0.05039902
249	0x3bcaff40	0.006194979
250	0x3cd86fd3	0.02642051
251	0xbd53300a	-0.051559485
252	0x3d14002f	0.036132988
253	0x3d496011	0.04916388
254	0xbce2fa55	-0.027707258
255	0xbcc36bfd	-0.023855204

action_out.bias f4 [2]
0	0x3b506517	0.0031798535
1	0xbc640ab8	-0.013918571
